…
I0811 12:23:15.669674 15635 net.cpp:264] The NetState phase (0) differed from the phase (1) specified by a rule in layer accuracy
I0811 12:23:15.670099 15635 net.cpp:42] Initializing net from parameters: 
name: "CIFAR10_new_highway"
state {
  phase: TRAIN
}
layer {
  name: "cifar"
  type: "Data"
  top: "data"
  top: "label"
  include {
    phase: TRAIN
  }
  transform_param {
    mirror: true
    crop_size: 32
    mean_file: "/home/data/cifar10-gcn-leveldb-splits/paddedmean.binaryproto"
  }
  data_param {
    source: "/home/data/cifar10-gcn-leveldb-splits/cifar10_full_train_leveldb_padded"
    batch_size: 100
    backend: LEVELDB
  }
}
layer {
  name: "drop1"
  type: "Dropout"
  bottom: "data"
  top: "drop1"
  dropout_param {
    dropout_ratio: 0.2
  }
}
layer {
  name: "conv1"
  type: "Convolution"
  bottom: "drop1"
  top: "conv1"
  param {
    lr_mult: 1
    decay_mult: 1
  }
  param {
    lr_mult: 2
    decay_mult: 0
  }
  convolution_param {
    num_output: 32
    pad: 1
    kernel_size: 3
    stride: 1
    weight_filler {
      type: "gaussian"
      value: 0.05
    }
    bias_filler {
      type: "constant"
    }
  }
}
layer {
  name: "relu1"
  type: "ReLU"
  bottom: "conv1"
  top: "conv1"
}
layer {
  name: "conv2"
  type: "CuDNNHighway"
  bottom: "conv1"
  top: "conv2"
  param {
    lr_mult: 1
    decay_mult: 1
  }
  param {
    lr_mult: 1
    decay_mult: 1
  }
  param {
    lr_mult: 2
    decay_mult: 0
  }
  param {
    lr_mult: 2
    decay_mult: 0
  }
  highway_conv_param {
    num_output: 32
    pad: 1
    kernel_size: 3
    stride: 1
    weight_filler {
      type: "xavier"
    }
    bias_filler {
      type: "constant"
    }
    transform_bias_filler {
      type: "constant"
      value: -2
    }
  }
}
layer {
  name: "conv3"
  type: "CuDNNHighway"
  bottom: "conv2"
  top: "conv3"
  param {
    lr_mult: 1
    decay_mult: 1
  }
  param {
    lr_mult: 1
    decay_mult: 1
  }
  param {
    lr_mult: 2
    decay_mult: 0
  }
  param {
    lr_mult: 2
    decay_mult: 0
  }
  highway_conv_param {
    num_output: 32
    pad: 1
    kernel_size: 3
    stride: 1
    weight_filler {
      type: "xavier"
    }
    bias_filler {
      type: "constant"
    }
    transform_bias_filler {
      type: "constant"
      value: -2
    }
  }
}
layer {
  name: "conv4"
  type: "CuDNNHighway"
  bottom: "conv3"
  top: "conv4"
  param {
    lr_mult: 1
    decay_mult: 1
  }
  param {
    lr_mult: 1
    decay_mult: 1
  }
  param {
    lr_mult: 2
    decay_mult: 0
  }
  param {
    lr_mult: 2
    decay_mult: 0
  }
  highway_conv_param {
    num_output: 32
    pad: 1
    kernel_size: 3
    stride: 1
    weight_filler {
      type: "xavier"
    }
    bias_filler {
      type: "constant"
    }
    transform_bias_filler {
      type: "constant"
      value: -2
    }
  }
}
layer {
  name: "conv5"
  type: "CuDNNHighway"
  bottom: "conv4"
  top: "conv5"
  param {
    lr_mult: 1
    decay_mult: 1
  }
  param {
    lr_mult: 1
    decay_mult: 1
  }
  param {
    lr_mult: 2
    decay_mult: 0
  }
  param {
    lr_mult: 2
    decay_mult: 0
  }
  highway_conv_param {
    num_output: 32
    pad: 1
    kernel_size: 3
    stride: 1
    weight_filler {
      type: "xavier"
    }
    bias_filler {
      type: "constant"
    }
    transform_bias_filler {
      type: "constant"
      value: -2
    }
  }
}
layer {
  name: "pool1"
  type: "Pooling"
  bottom: "conv5"
  top: "pool1"
  pooling_param {
    pool: MAX
    kernel_size: 2
    stride: 2
  }
}
layer {
  name: "drop2"
  type: "Dropout"
  bottom: "pool1"
  top: "drop2"
  dropout_param {
    dropout_ratio: 0.2
  }
}
layer {
  name: "conv6"
  type: "Convolution"
  bottom: "drop2"
  top: "conv6"
  param {
    lr_mult: 1
    decay_mult: 1
  }
  param {
    lr_mult: 2
    decay_mult: 0
  }
  convolution_param {
    num_output: 80
    pad: 1
    kernel_size: 3
    stride: 1
    weight_filler {
      type: "xavier"
    }
    bias_filler {
      type: "constant"
    }
  }
}
layer {
  name: "relu6"
  type: "ReLU"
  bottom: "conv6"
  top: "conv6"
}
layer {
  name: "conv7"
  type: "CuDNNHighway"
  bottom: "conv6"
  top: "conv7"
  param {
    lr_mult: 1
    decay_mult: 1
  }
  param {
    lr_mult: 1
    decay_mult: 1
  }
  param {
    lr_mult: 2
    decay_mult: 0
  }
  param {
    lr_mult: 2
    decay_mult: 0
  }
  highway_conv_param {
    num_output: 80
    pad: 1
    kernel_size: 3
    stride: 1
    weight_filler {
      type: "xavier"
    }
    bias_filler {
      type: "constant"
    }
    transform_bias_filler {
      type: "constant"
      value: -2
    }
  }
}
layer {
  name: "conv8"
  type: "CuDNNHighway"
  bottom: "conv7"
  top: "conv8"
  param {
    lr_mult: 1
    decay_mult: 1
  }
  param {
    lr_mult: 1
    decay_mult: 1
  }
  param {
    lr_mult: 2
    decay_mult: 0
  }
  param {
    lr_mult: 2
    decay_mult: 0
  }
  highway_conv_param {
    num_output: 80
    pad: 1
    kernel_size: 3
    stride: 1
    weight_filler {
      type: "xavier"
    }
    bias_filler {
      type: "constant"
    }
    transform_bias_filler {
      type: "constant"
      value: -2
    }
  }
}
layer {
  name: "conv9"
  type: "CuDNNHighway"
  bottom: "conv8"
  top: "conv9"
  param {
    lr_mult: 1
    decay_mult: 1
  }
  param {
    lr_mult: 1
    decay_mult: 1
  }
  param {
    lr_mult: 2
    decay_mult: 0
  }
  param {
    lr_mult: 2
    decay_mult: 0
  }
  highway_conv_param {
    num_output: 80
    pad: 1
    kernel_size: 3
    stride: 1
    weight_filler {
      type: "xavier"
    }
    bias_filler {
      type: "constant"
    }
    transform_bias_filler {
      type: "constant"
      value: -2
    }
  }
}
layer {
  name: "conv10"
  type: "CuDNNHighway"
  bottom: "conv9"
  top: "conv10"
  param {
    lr_mult: 1
    decay_mult: 1
  }
  param {
    lr_mult: 1
    decay_mult: 1
  }
  param {
    lr_mult: 2
    decay_mult: 0
  }
  param {
    lr_mult: 2
    decay_mult: 0
  }
  highway_conv_param {
    num_output: 80
    pad: 1
    kernel_size: 3
    stride: 1
    weight_filler {
      type: "xavier"
    }
    bias_filler {
      type: "constant"
    }
    transform_bias_filler {
      type: "constant"
      value: -2
    }
  }
}
layer {
  name: "conv11"
  type: "CuDNNHighway"
  bottom: "conv10"
  top: "conv11"
  param {
    lr_mult: 1
    decay_mult: 1
  }
  param {
    lr_mult: 1
    decay_mult: 1
  }
  param {
    lr_mult: 2
    decay_mult: 0
  }
  param {
    lr_mult: 2
    decay_mult: 0
  }
  highway_conv_param {
    num_output: 80
    pad: 1
    kernel_size: 3
    stride: 1
    weight_filler {
      type: "xavier"
    }
    bias_filler {
      type: "constant"
    }
    transform_bias_filler {
      type: "constant"
      value: -2
    }
  }
}
layer {
  name: "pool2"
  type: "Pooling"
  bottom: "conv11"
  top: "pool2"
  pooling_param {
    pool: MAX
    kernel_size: 2
    stride: 2
  }
}
layer {
  name: "drop3"
  type: "Dropout"
  bottom: "pool2"
  top: "drop3"
  dropout_param {
    dropout_ratio: 0.2
  }
}
layer {
  name: "conv12"
  type: "Convolution"
  bottom: "drop3"
  top: "conv12"
  param {
    lr_mult: 1
    decay_mult: 1
  }
  param {
    lr_mult: 2
    decay_mult: 0
  }
  convolution_param {
    num_output: 128
    pad: 1
    kernel_size: 3
    stride: 1
    weight_filler {
      type: "xavier"
    }
    bias_filler {
      type: "constant"
    }
  }
}
layer {
  name: "relu12"
  type: "ReLU"
  bottom: "conv12"
  top: "conv12"
}
layer {
  name: "conv13"
  type: "CuDNNHighway"
  bottom: "conv12"
  top: "conv13"
  param {
    lr_mult: 1
    decay_mult: 1
  }
  param {
    lr_mult: 1
    decay_mult: 1
  }
  param {
    lr_mult: 2
    decay_mult: 0
  }
  param {
    lr_mult: 2
    decay_mult: 0
  }
  highway_conv_param {
    num_output: 128
    pad: 1
    kernel_size: 3
    stride: 1
    weight_filler {
      type: "xavier"
    }
    bias_filler {
      type: "constant"
    }
    transform_bias_filler {
      type: "constant"
      value: -2
    }
  }
}
layer {
  name: "conv14"
  type: "CuDNNHighway"
  bottom: "conv13"
  top: "conv14"
  param {
    lr_mult: 1
    decay_mult: 1
  }
  param {
    lr_mult: 1
    decay_mult: 1
  }
  param {
    lr_mult: 2
    decay_mult: 0
  }
  param {
    lr_mult: 2
    decay_mult: 0
  }
  highway_conv_param {
    num_output: 128
    pad: 1
    kernel_size: 3
    stride: 1
    weight_filler {
      type: "xavier"
    }
    bias_filler {
      type: "constant"
    }
    transform_bias_filler {
      type: "constant"
      value: -2
    }
  }
}
layer {
  name: "conv15"
  type: "CuDNNHighway"
  bottom: "conv14"
  top: "conv15"
  param {
    lr_mult: 1
    decay_mult: 1
  }
  param {
    lr_mult: 1
    decay_mult: 1
  }
  param {
    lr_mult: 2
    decay_mult: 0
  }
  param {
    lr_mult: 2
    decay_mult: 0
  }
  highway_conv_param {
    num_output: 128
    pad: 1
    kernel_size: 3
    stride: 1
    weight_filler {
      type: "xavier"
    }
    bias_filler {
      type: "constant"
    }
    transform_bias_filler {
      type: "constant"
      value: -2
    }
  }
}
layer {
  name: "conv16"
  type: "CuDNNHighway"
  bottom: "conv15"
  top: "conv16"
  param {
    lr_mult: 1
    decay_mult: 1
  }
  param {
    lr_mult: 1
    decay_mult: 1
  }
  param {
    lr_mult: 2
    decay_mult: 0
  }
  param {
    lr_mult: 2
    decay_mult: 0
  }
  highway_conv_param {
    num_output: 128
    pad: 1
    kernel_size: 3
    stride: 1
    weight_filler {
      type: "xavier"
    }
    bias_filler {
      type: "constant"
    }
    transform_bias_filler {
      type: "constant"
      value: -2
    }
  }
}
layer {
  name: "conv17"
  type: "CuDNNHighway"
  bottom: "conv16"
  top: "conv17"
  param {
    lr_mult: 1
    decay_mult: 1
  }
  param {
    lr_mult: 1
    decay_mult: 1
  }
  param {
    lr_mult: 2
    decay_mult: 0
  }
  param {
    lr_mult: 2
    decay_mult: 0
  }
  highway_conv_param {
    num_output: 128
    pad: 1
    kernel_size: 3
    stride: 1
    weight_filler {
      type: "xavier"
    }
    bias_filler {
      type: "constant"
    }
    transform_bias_filler {
      type: "constant"
      value: -2
    }
  }
}
layer {
  name: "conv18"
  type: "Convolution"
  bottom: "conv17"
  top: "conv18"
  param {
    lr_mult: 1
    decay_mult: 1
  }
  param {
    lr_mult: 2
    decay_mult: 0
  }
  convolution_param {
    num_output: 100
    pad: 0
    kernel_size: 1
    stride: 1
    weight_filler {
      type: "xavier"
    }
    bias_filler {
      type: "constant"
    }
  }
}
layer {
  name: "relu"
  type: "ReLU"
  bottom: "conv18"
  top: "conv18"
}
layer {
  name: "pool3"
  type: "Pooling"
  bottom: "conv18"
  top: "pool3"
  pooling_param {
    pool: AVE
    kernel_size: 8
    stride: 8
  }
}
layer {
  name: "drop4"
  type: "Dropout"
  bottom: "pool3"
  top: "drop4"
  dropout_param {
    dropout_ratio: 0.2
  }
}
layer {
  name: "ip2"
  type: "InnerProduct"
  bottom: "drop4"
  top: "ip2"
  param {
    lr_mult: 1
    decay_mult: 10
  }
  param {
    lr_mult: 2
    decay_mult: 0
  }
  inner_product_param {
    num_output: 10
    weight_filler {
      type: "gaussian"
      std: 0.05
    }
    bias_filler {
      type: "constant"
    }
  }
}
layer {
  name: "loss"
  type: "SoftmaxWithLoss"
  bottom: "ip2"
  bottom: "label"
  top: "loss"
}
I0811 12:23:15.670302 15635 layer_factory.hpp:74] Creating layer cifar
I0811 12:23:15.670330 15635 net.cpp:87] Creating Layer cifar
I0811 12:23:15.670337 15635 net.cpp:345] cifar -> data
I0811 12:23:15.670368 15635 net.cpp:345] cifar -> label
I0811 12:23:15.670380 15635 net.cpp:116] Setting up cifar
I0811 12:23:15.675524 15635 db.cpp:20] Opened leveldb /home/data/cifar10-gcn-leveldb-splits/cifar10_full_train_leveldb_padded
I0811 12:23:15.675710 15635 data_layer.cpp:67] output data size: 100,3,32,32
I0811 12:23:15.675725 15635 data_transformer.cpp:22] Loading mean file from: /home/data/cifar10-gcn-leveldb-splits/paddedmean.binaryproto
I0811 12:23:15.676225 15635 net.cpp:123] Top shape: 100 3 32 32 (307200)
I0811 12:23:15.676235 15635 net.cpp:123] Top shape: 100 (100)
I0811 12:23:15.676242 15635 net.cpp:154] With 0 trainable parameters
I0811 12:23:15.676249 15635 layer_factory.hpp:74] Creating layer drop1
I0811 12:23:15.676259 15635 net.cpp:87] Creating Layer drop1
I0811 12:23:15.676266 15635 net.cpp:387] drop1 <- data
I0811 12:23:15.676276 15635 net.cpp:345] drop1 -> drop1
I0811 12:23:15.676288 15635 net.cpp:116] Setting up drop1
I0811 12:23:15.676303 15635 net.cpp:123] Top shape: 100 3 32 32 (307200)
I0811 12:23:15.676309 15635 net.cpp:154] With 0 trainable parameters
I0811 12:23:15.676313 15635 layer_factory.hpp:74] Creating layer conv1
I0811 12:23:15.676326 15635 net.cpp:87] Creating Layer conv1
I0811 12:23:15.676331 15635 net.cpp:387] conv1 <- drop1
I0811 12:23:15.676339 15635 net.cpp:345] conv1 -> conv1
I0811 12:23:15.676350 15635 net.cpp:116] Setting up conv1
I0811 12:23:15.713774 15635 net.cpp:123] Top shape: 100 32 32 32 (3276800)
I0811 12:23:15.713821 15635 net.cpp:154] With 896 trainable parameters
I0811 12:23:15.713830 15635 layer_factory.hpp:74] Creating layer relu1
I0811 12:23:15.713842 15635 net.cpp:87] Creating Layer relu1
I0811 12:23:15.713848 15635 net.cpp:387] relu1 <- conv1
I0811 12:23:15.713860 15635 net.cpp:334] relu1 -> conv1 (in-place)
I0811 12:23:15.713871 15635 net.cpp:116] Setting up relu1
I0811 12:23:15.713995 15635 net.cpp:123] Top shape: 100 32 32 32 (3276800)
I0811 12:23:15.714004 15635 net.cpp:154] With 0 trainable parameters
I0811 12:23:15.714009 15635 layer_factory.hpp:74] Creating layer conv2
I0811 12:23:15.714023 15635 net.cpp:87] Creating Layer conv2
I0811 12:23:15.714030 15635 net.cpp:387] conv2 <- conv1
I0811 12:23:15.714037 15635 net.cpp:345] conv2 -> conv2
I0811 12:23:15.714049 15635 net.cpp:116] Setting up conv2
I0811 12:23:15.715057 15635 net.cpp:123] Top shape: 100 32 32 32 (3276800)
I0811 12:23:15.715072 15635 net.cpp:154] With 18496 trainable parameters
I0811 12:23:15.715077 15635 layer_factory.hpp:74] Creating layer conv3
I0811 12:23:15.715085 15635 net.cpp:87] Creating Layer conv3
I0811 12:23:15.715091 15635 net.cpp:387] conv3 <- conv2
I0811 12:23:15.715098 15635 net.cpp:345] conv3 -> conv3
I0811 12:23:15.715107 15635 net.cpp:116] Setting up conv3
I0811 12:23:15.716063 15635 net.cpp:123] Top shape: 100 32 32 32 (3276800)
I0811 12:23:15.716078 15635 net.cpp:154] With 18496 trainable parameters
I0811 12:23:15.716084 15635 layer_factory.hpp:74] Creating layer conv4
I0811 12:23:15.716094 15635 net.cpp:87] Creating Layer conv4
I0811 12:23:15.716099 15635 net.cpp:387] conv4 <- conv3
I0811 12:23:15.716107 15635 net.cpp:345] conv4 -> conv4
I0811 12:23:15.716116 15635 net.cpp:116] Setting up conv4
I0811 12:23:15.717039 15635 net.cpp:123] Top shape: 100 32 32 32 (3276800)
I0811 12:23:15.717051 15635 net.cpp:154] With 18496 trainable parameters
I0811 12:23:15.717057 15635 layer_factory.hpp:74] Creating layer conv5
I0811 12:23:15.717068 15635 net.cpp:87] Creating Layer conv5
I0811 12:23:15.717073 15635 net.cpp:387] conv5 <- conv4
I0811 12:23:15.717082 15635 net.cpp:345] conv5 -> conv5
I0811 12:23:15.717092 15635 net.cpp:116] Setting up conv5
I0811 12:23:15.718013 15635 net.cpp:123] Top shape: 100 32 32 32 (3276800)
I0811 12:23:15.718029 15635 net.cpp:154] With 18496 trainable parameters
I0811 12:23:15.718034 15635 layer_factory.hpp:74] Creating layer pool1
I0811 12:23:15.718055 15635 net.cpp:87] Creating Layer pool1
I0811 12:23:15.718071 15635 net.cpp:387] pool1 <- conv5
I0811 12:23:15.718078 15635 net.cpp:345] pool1 -> pool1
I0811 12:23:15.718086 15635 net.cpp:116] Setting up pool1
I0811 12:23:15.718158 15635 net.cpp:123] Top shape: 100 32 16 16 (819200)
I0811 12:23:15.718164 15635 net.cpp:154] With 0 trainable parameters
I0811 12:23:15.718169 15635 layer_factory.hpp:74] Creating layer drop2
I0811 12:23:15.718178 15635 net.cpp:87] Creating Layer drop2
I0811 12:23:15.718183 15635 net.cpp:387] drop2 <- pool1
I0811 12:23:15.718189 15635 net.cpp:345] drop2 -> drop2
I0811 12:23:15.718197 15635 net.cpp:116] Setting up drop2
I0811 12:23:15.718206 15635 net.cpp:123] Top shape: 100 32 16 16 (819200)
I0811 12:23:15.718211 15635 net.cpp:154] With 0 trainable parameters
I0811 12:23:15.718216 15635 layer_factory.hpp:74] Creating layer conv6
I0811 12:23:15.718226 15635 net.cpp:87] Creating Layer conv6
I0811 12:23:15.718231 15635 net.cpp:387] conv6 <- drop2
I0811 12:23:15.718240 15635 net.cpp:345] conv6 -> conv6
I0811 12:23:15.718248 15635 net.cpp:116] Setting up conv6
I0811 12:23:15.719076 15635 net.cpp:123] Top shape: 100 80 16 16 (2048000)
I0811 12:23:15.719087 15635 net.cpp:154] With 23120 trainable parameters
I0811 12:23:15.719094 15635 layer_factory.hpp:74] Creating layer relu6
I0811 12:23:15.719099 15635 net.cpp:87] Creating Layer relu6
I0811 12:23:15.719105 15635 net.cpp:387] relu6 <- conv6
I0811 12:23:15.719111 15635 net.cpp:334] relu6 -> conv6 (in-place)
I0811 12:23:15.719120 15635 net.cpp:116] Setting up relu6
I0811 12:23:15.719171 15635 net.cpp:123] Top shape: 100 80 16 16 (2048000)
I0811 12:23:15.719177 15635 net.cpp:154] With 0 trainable parameters
I0811 12:23:15.719182 15635 layer_factory.hpp:74] Creating layer conv7
I0811 12:23:15.719190 15635 net.cpp:87] Creating Layer conv7
I0811 12:23:15.719195 15635 net.cpp:387] conv7 <- conv6
I0811 12:23:15.719204 15635 net.cpp:345] conv7 -> conv7
I0811 12:23:15.719213 15635 net.cpp:116] Setting up conv7
I0811 12:23:15.722627 15635 net.cpp:123] Top shape: 100 80 16 16 (2048000)
I0811 12:23:15.722642 15635 net.cpp:154] With 115360 trainable parameters
I0811 12:23:15.722648 15635 layer_factory.hpp:74] Creating layer conv8
I0811 12:23:15.722657 15635 net.cpp:87] Creating Layer conv8
I0811 12:23:15.722662 15635 net.cpp:387] conv8 <- conv7
I0811 12:23:15.722673 15635 net.cpp:345] conv8 -> conv8
I0811 12:23:15.722682 15635 net.cpp:116] Setting up conv8
I0811 12:23:15.726177 15635 net.cpp:123] Top shape: 100 80 16 16 (2048000)
I0811 12:23:15.726192 15635 net.cpp:154] With 115360 trainable parameters
I0811 12:23:15.726197 15635 layer_factory.hpp:74] Creating layer conv9
I0811 12:23:15.726207 15635 net.cpp:87] Creating Layer conv9
I0811 12:23:15.726212 15635 net.cpp:387] conv9 <- conv8
I0811 12:23:15.726223 15635 net.cpp:345] conv9 -> conv9
I0811 12:23:15.726233 15635 net.cpp:116] Setting up conv9
I0811 12:23:15.729595 15635 net.cpp:123] Top shape: 100 80 16 16 (2048000)
I0811 12:23:15.729610 15635 net.cpp:154] With 115360 trainable parameters
I0811 12:23:15.729616 15635 layer_factory.hpp:74] Creating layer conv10
I0811 12:23:15.729624 15635 net.cpp:87] Creating Layer conv10
I0811 12:23:15.729629 15635 net.cpp:387] conv10 <- conv9
I0811 12:23:15.729637 15635 net.cpp:345] conv10 -> conv10
I0811 12:23:15.729645 15635 net.cpp:116] Setting up conv10
I0811 12:23:15.733167 15635 net.cpp:123] Top shape: 100 80 16 16 (2048000)
I0811 12:23:15.733185 15635 net.cpp:154] With 115360 trainable parameters
I0811 12:23:15.733191 15635 layer_factory.hpp:74] Creating layer conv11
I0811 12:23:15.733204 15635 net.cpp:87] Creating Layer conv11
I0811 12:23:15.733209 15635 net.cpp:387] conv11 <- conv10
I0811 12:23:15.733218 15635 net.cpp:345] conv11 -> conv11
I0811 12:23:15.733227 15635 net.cpp:116] Setting up conv11
I0811 12:23:15.736735 15635 net.cpp:123] Top shape: 100 80 16 16 (2048000)
I0811 12:23:15.736752 15635 net.cpp:154] With 115360 trainable parameters
I0811 12:23:15.736757 15635 layer_factory.hpp:74] Creating layer pool2
I0811 12:23:15.736765 15635 net.cpp:87] Creating Layer pool2
I0811 12:23:15.736774 15635 net.cpp:387] pool2 <- conv11
I0811 12:23:15.736790 15635 net.cpp:345] pool2 -> pool2
I0811 12:23:15.736800 15635 net.cpp:116] Setting up pool2
I0811 12:23:15.736860 15635 net.cpp:123] Top shape: 100 80 8 8 (512000)
I0811 12:23:15.736866 15635 net.cpp:154] With 0 trainable parameters
I0811 12:23:15.736871 15635 layer_factory.hpp:74] Creating layer drop3
I0811 12:23:15.736878 15635 net.cpp:87] Creating Layer drop3
I0811 12:23:15.737295 15635 net.cpp:387] drop3 <- pool2
I0811 12:23:15.737318 15635 net.cpp:345] drop3 -> drop3
I0811 12:23:15.737329 15635 net.cpp:116] Setting up drop3
I0811 12:23:15.737340 15635 net.cpp:123] Top shape: 100 80 8 8 (512000)
I0811 12:23:15.737345 15635 net.cpp:154] With 0 trainable parameters
I0811 12:23:15.737350 15635 layer_factory.hpp:74] Creating layer conv12
I0811 12:23:15.737361 15635 net.cpp:87] Creating Layer conv12
I0811 12:23:15.737368 15635 net.cpp:387] conv12 <- drop3
I0811 12:23:15.737380 15635 net.cpp:345] conv12 -> conv12
I0811 12:23:15.737388 15635 net.cpp:116] Setting up conv12
I0811 12:23:15.740152 15635 net.cpp:123] Top shape: 100 128 8 8 (819200)
I0811 12:23:15.740172 15635 net.cpp:154] With 92288 trainable parameters
I0811 12:23:15.740183 15635 layer_factory.hpp:74] Creating layer relu12
I0811 12:23:15.740195 15635 net.cpp:87] Creating Layer relu12
I0811 12:23:15.740213 15635 net.cpp:387] relu12 <- conv12
I0811 12:23:15.740226 15635 net.cpp:334] relu12 -> conv12 (in-place)
I0811 12:23:15.740233 15635 net.cpp:116] Setting up relu12
I0811 12:23:15.740377 15635 net.cpp:123] Top shape: 100 128 8 8 (819200)
I0811 12:23:15.740386 15635 net.cpp:154] With 0 trainable parameters
I0811 12:23:15.740391 15635 layer_factory.hpp:74] Creating layer conv13
I0811 12:23:15.740398 15635 net.cpp:87] Creating Layer conv13
I0811 12:23:15.740403 15635 net.cpp:387] conv13 <- conv12
I0811 12:23:15.740412 15635 net.cpp:345] conv13 -> conv13
I0811 12:23:15.740422 15635 net.cpp:116] Setting up conv13
I0811 12:23:15.749847 15635 net.cpp:123] Top shape: 100 128 8 8 (819200)
I0811 12:23:15.749871 15635 net.cpp:154] With 295168 trainable parameters
I0811 12:23:15.749876 15635 layer_factory.hpp:74] Creating layer conv14
I0811 12:23:15.749891 15635 net.cpp:87] Creating Layer conv14
I0811 12:23:15.749897 15635 net.cpp:387] conv14 <- conv13
I0811 12:23:15.749907 15635 net.cpp:345] conv14 -> conv14
I0811 12:23:15.749917 15635 net.cpp:116] Setting up conv14
I0811 12:23:15.758671 15635 net.cpp:123] Top shape: 100 128 8 8 (819200)
I0811 12:23:15.758704 15635 net.cpp:154] With 295168 trainable parameters
I0811 12:23:15.758712 15635 layer_factory.hpp:74] Creating layer conv15
I0811 12:23:15.758723 15635 net.cpp:87] Creating Layer conv15
I0811 12:23:15.758728 15635 net.cpp:387] conv15 <- conv14
I0811 12:23:15.758736 15635 net.cpp:345] conv15 -> conv15
I0811 12:23:15.758745 15635 net.cpp:116] Setting up conv15
I0811 12:23:15.766489 15635 net.cpp:123] Top shape: 100 128 8 8 (819200)
I0811 12:23:15.766505 15635 net.cpp:154] With 295168 trainable parameters
I0811 12:23:15.766511 15635 layer_factory.hpp:74] Creating layer conv16
I0811 12:23:15.766522 15635 net.cpp:87] Creating Layer conv16
I0811 12:23:15.766527 15635 net.cpp:387] conv16 <- conv15
I0811 12:23:15.766536 15635 net.cpp:345] conv16 -> conv16
I0811 12:23:15.766546 15635 net.cpp:116] Setting up conv16
I0811 12:23:15.774123 15635 net.cpp:123] Top shape: 100 128 8 8 (819200)
I0811 12:23:15.774138 15635 net.cpp:154] With 295168 trainable parameters
I0811 12:23:15.774143 15635 layer_factory.hpp:74] Creating layer conv17
I0811 12:23:15.774152 15635 net.cpp:87] Creating Layer conv17
I0811 12:23:15.774158 15635 net.cpp:387] conv17 <- conv16
I0811 12:23:15.774166 15635 net.cpp:345] conv17 -> conv17
I0811 12:23:15.774175 15635 net.cpp:116] Setting up conv17
I0811 12:23:15.781810 15635 net.cpp:123] Top shape: 100 128 8 8 (819200)
I0811 12:23:15.781826 15635 net.cpp:154] With 295168 trainable parameters
I0811 12:23:15.781831 15635 layer_factory.hpp:74] Creating layer conv18
I0811 12:23:15.781841 15635 net.cpp:87] Creating Layer conv18
I0811 12:23:15.781855 15635 net.cpp:387] conv18 <- conv17
I0811 12:23:15.781872 15635 net.cpp:345] conv18 -> conv18
I0811 12:23:15.781880 15635 net.cpp:116] Setting up conv18
I0811 12:23:15.782455 15635 net.cpp:123] Top shape: 100 100 8 8 (640000)
I0811 12:23:15.782465 15635 net.cpp:154] With 12900 trainable parameters
I0811 12:23:15.782470 15635 layer_factory.hpp:74] Creating layer relu
I0811 12:23:15.782477 15635 net.cpp:87] Creating Layer relu
I0811 12:23:15.782482 15635 net.cpp:387] relu <- conv18
I0811 12:23:15.782490 15635 net.cpp:334] relu -> conv18 (in-place)
I0811 12:23:15.782497 15635 net.cpp:116] Setting up relu
I0811 12:23:15.782552 15635 net.cpp:123] Top shape: 100 100 8 8 (640000)
I0811 12:23:15.782558 15635 net.cpp:154] With 0 trainable parameters
I0811 12:23:15.782562 15635 layer_factory.hpp:74] Creating layer pool3
I0811 12:23:15.782570 15635 net.cpp:87] Creating Layer pool3
I0811 12:23:15.782575 15635 net.cpp:387] pool3 <- conv18
I0811 12:23:15.782583 15635 net.cpp:345] pool3 -> pool3
I0811 12:23:15.782590 15635 net.cpp:116] Setting up pool3
I0811 12:23:15.782657 15635 net.cpp:123] Top shape: 100 100 1 1 (10000)
I0811 12:23:15.782665 15635 net.cpp:154] With 0 trainable parameters
I0811 12:23:15.782670 15635 layer_factory.hpp:74] Creating layer drop4
I0811 12:23:15.782676 15635 net.cpp:87] Creating Layer drop4
I0811 12:23:15.782681 15635 net.cpp:387] drop4 <- pool3
I0811 12:23:15.782688 15635 net.cpp:345] drop4 -> drop4
I0811 12:23:15.782696 15635 net.cpp:116] Setting up drop4
I0811 12:23:15.782704 15635 net.cpp:123] Top shape: 100 100 1 1 (10000)
I0811 12:23:15.782708 15635 net.cpp:154] With 0 trainable parameters
I0811 12:23:15.782713 15635 layer_factory.hpp:74] Creating layer ip2
I0811 12:23:15.782724 15635 net.cpp:87] Creating Layer ip2
I0811 12:23:15.782729 15635 net.cpp:387] ip2 <- drop4
I0811 12:23:15.782737 15635 net.cpp:345] ip2 -> ip2
I0811 12:23:15.782745 15635 net.cpp:116] Setting up ip2
I0811 12:23:15.782788 15635 net.cpp:123] Top shape: 100 10 (1000)
I0811 12:23:15.782800 15635 net.cpp:154] With 1010 trainable parameters
I0811 12:23:15.782804 15635 layer_factory.hpp:74] Creating layer loss
I0811 12:23:15.782814 15635 net.cpp:87] Creating Layer loss
I0811 12:23:15.782819 15635 net.cpp:387] loss <- ip2
I0811 12:23:15.782824 15635 net.cpp:387] loss <- label
I0811 12:23:15.782831 15635 net.cpp:345] loss -> loss
I0811 12:23:15.782840 15635 net.cpp:116] Setting up loss
…
I0811 12:23:15.784428 15635 net.cpp:297] The NetState did not contain stage 'test-on-train' specified by a rule in layer cifar
I0811 12:23:15.784862 15635 net.cpp:42] Initializing net from parameters: 
name: "CIFAR10_new_highway"
state {
  phase: TEST
  stage: "test-on-test"
}
layer {
  name: "cifar"
  type: "Data"
  top: "data"
  top: "label"
  include {
    phase: TEST
    stage: "test-on-test"
  }
  transform_param {
    mirror: false
    mean_file: "/home/data/cifar10-gcn-leveldb-splits/mean.binaryproto"
  }
  data_param {
    source: "/home/data/cifar10-gcn-leveldb-splits/cifar10_test_leveldb"
    batch_size: 100
    backend: LEVELDB
  }
}
layer {
  name: "drop1"
  type: "Dropout"
  bottom: "data"
  top: "drop1"
  dropout_param {
    dropout_ratio: 0.2
  }
}
layer {
  name: "conv1"
  type: "Convolution"
  bottom: "drop1"
  top: "conv1"
  param {
    lr_mult: 1
    decay_mult: 1
  }
  param {
    lr_mult: 2
    decay_mult: 0
  }
  convolution_param {
    num_output: 32
    pad: 1
    kernel_size: 3
    stride: 1
    weight_filler {
      type: "gaussian"
      value: 0.05
    }
    bias_filler {
      type: "constant"
    }
  }
}
layer {
  name: "relu1"
  type: "ReLU"
  bottom: "conv1"
  top: "conv1"
}
layer {
  name: "conv2"
  type: "CuDNNHighway"
  bottom: "conv1"
  top: "conv2"
  param {
    lr_mult: 1
    decay_mult: 1
  }
  param {
    lr_mult: 1
    decay_mult: 1
  }
  param {
    lr_mult: 2
    decay_mult: 0
  }
  param {
    lr_mult: 2
    decay_mult: 0
  }
  highway_conv_param {
    num_output: 32
    pad: 1
    kernel_size: 3
    stride: 1
    weight_filler {
      type: "xavier"
    }
    bias_filler {
      type: "constant"
    }
    transform_bias_filler {
      type: "constant"
      value: -2
    }
  }
}
layer {
  name: "conv3"
  type: "CuDNNHighway"
  bottom: "conv2"
  top: "conv3"
  param {
    lr_mult: 1
    decay_mult: 1
  }
  param {
    lr_mult: 1
    decay_mult: 1
  }
  param {
    lr_mult: 2
    decay_mult: 0
  }
  param {
    lr_mult: 2
    decay_mult: 0
  }
  highway_conv_param {
    num_output: 32
    pad: 1
    kernel_size: 3
    stride: 1
    weight_filler {
      type: "xavier"
    }
    bias_filler {
      type: "constant"
    }
    transform_bias_filler {
      type: "constant"
      value: -2
    }
  }
}
layer {
  name: "conv4"
  type: "CuDNNHighway"
  bottom: "conv3"
  top: "conv4"
  param {
    lr_mult: 1
    decay_mult: 1
  }
  param {
    lr_mult: 1
    decay_mult: 1
  }
  param {
    lr_mult: 2
    decay_mult: 0
  }
  param {
    lr_mult: 2
    decay_mult: 0
  }
  highway_conv_param {
    num_output: 32
    pad: 1
    kernel_size: 3
    stride: 1
    weight_filler {
      type: "xavier"
    }
    bias_filler {
      type: "constant"
    }
    transform_bias_filler {
      type: "constant"
      value: -2
    }
  }
}
layer {
  name: "conv5"
  type: "CuDNNHighway"
  bottom: "conv4"
  top: "conv5"
  param {
    lr_mult: 1
    decay_mult: 1
  }
  param {
    lr_mult: 1
    decay_mult: 1
  }
  param {
    lr_mult: 2
    decay_mult: 0
  }
  param {
    lr_mult: 2
    decay_mult: 0
  }
  highway_conv_param {
    num_output: 32
    pad: 1
    kernel_size: 3
    stride: 1
    weight_filler {
      type: "xavier"
    }
    bias_filler {
      type: "constant"
    }
    transform_bias_filler {
      type: "constant"
      value: -2
    }
  }
}
layer {
  name: "pool1"
  type: "Pooling"
  bottom: "conv5"
  top: "pool1"
  pooling_param {
    pool: MAX
    kernel_size: 2
    stride: 2
  }
}
layer {
  name: "drop2"
  type: "Dropout"
  bottom: "pool1"
  top: "drop2"
  dropout_param {
    dropout_ratio: 0.2
  }
}
layer {
  name: "conv6"
  type: "Convolution"
  bottom: "drop2"
  top: "conv6"
  param {
    lr_mult: 1
    decay_mult: 1
  }
  param {
    lr_mult: 2
    decay_mult: 0
  }
  convolution_param {
    num_output: 80
    pad: 1
    kernel_size: 3
    stride: 1
    weight_filler {
      type: "xavier"
    }
    bias_filler {
      type: "constant"
    }
  }
}
layer {
  name: "relu6"
  type: "ReLU"
  bottom: "conv6"
  top: "conv6"
}
layer {
  name: "conv7"
  type: "CuDNNHighway"
  bottom: "conv6"
  top: "conv7"
  param {
    lr_mult: 1
    decay_mult: 1
  }
  param {
    lr_mult: 1
    decay_mult: 1
  }
  param {
    lr_mult: 2
    decay_mult: 0
  }
  param {
    lr_mult: 2
    decay_mult: 0
  }
  highway_conv_param {
    num_output: 80
    pad: 1
    kernel_size: 3
    stride: 1
    weight_filler {
      type: "xavier"
    }
    bias_filler {
      type: "constant"
    }
    transform_bias_filler {
      type: "constant"
      value: -2
    }
  }
}
layer {
  name: "conv8"
  type: "CuDNNHighway"
  bottom: "conv7"
  top: "conv8"
  param {
    lr_mult: 1
    decay_mult: 1
  }
  param {
    lr_mult: 1
    decay_mult: 1
  }
  param {
    lr_mult: 2
    decay_mult: 0
  }
  param {
    lr_mult: 2
    decay_mult: 0
  }
  highway_conv_param {
    num_output: 80
    pad: 1
    kernel_size: 3
    stride: 1
    weight_filler {
      type: "xavier"
    }
    bias_filler {
      type: "constant"
    }
    transform_bias_filler {
      type: "constant"
      value: -2
    }
  }
}
layer {
  name: "conv9"
  type: "CuDNNHighway"
  bottom: "conv8"
  top: "conv9"
  param {
    lr_mult: 1
    decay_mult: 1
  }
  param {
    lr_mult: 1
    decay_mult: 1
  }
  param {
    lr_mult: 2
    decay_mult: 0
  }
  param {
    lr_mult: 2
    decay_mult: 0
  }
  highway_conv_param {
    num_output: 80
    pad: 1
    kernel_size: 3
    stride: 1
    weight_filler {
      type: "xavier"
    }
    bias_filler {
      type: "constant"
    }
    transform_bias_filler {
      type: "constant"
      value: -2
    }
  }
}
layer {
  name: "conv10"
  type: "CuDNNHighway"
  bottom: "conv9"
  top: "conv10"
  param {
    lr_mult: 1
    decay_mult: 1
  }
  param {
    lr_mult: 1
    decay_mult: 1
  }
  param {
    lr_mult: 2
    decay_mult: 0
  }
  param {
    lr_mult: 2
    decay_mult: 0
  }
  highway_conv_param {
    num_output: 80
    pad: 1
    kernel_size: 3
    stride: 1
    weight_filler {
      type: "xavier"
    }
    bias_filler {
      type: "constant"
    }
    transform_bias_filler {
      type: "constant"
      value: -2
    }
  }
}
layer {
  name: "conv11"
  type: "CuDNNHighway"
  bottom: "conv10"
  top: "conv11"
  param {
    lr_mult: 1
    decay_mult: 1
  }
  param {
    lr_mult: 1
    decay_mult: 1
  }
  param {
    lr_mult: 2
    decay_mult: 0
  }
  param {
    lr_mult: 2
    decay_mult: 0
  }
  highway_conv_param {
    num_output: 80
    pad: 1
    kernel_size: 3
    stride: 1
    weight_filler {
      type: "xavier"
    }
    bias_filler {
      type: "constant"
    }
    transform_bias_filler {
      type: "constant"
      value: -2
    }
  }
}
layer {
  name: "pool2"
  type: "Pooling"
  bottom: "conv11"
  top: "pool2"
  pooling_param {
    pool: MAX
    kernel_size: 2
    stride: 2
  }
}
layer {
  name: "drop3"
  type: "Dropout"
  bottom: "pool2"
  top: "drop3"
  dropout_param {
    dropout_ratio: 0.2
  }
}
layer {
  name: "conv12"
  type: "Convolution"
  bottom: "drop3"
  top: "conv12"
  param {
    lr_mult: 1
    decay_mult: 1
  }
  param {
    lr_mult: 2
    decay_mult: 0
  }
  convolution_param {
    num_output: 128
    pad: 1
    kernel_size: 3
    stride: 1
    weight_filler {
      type: "xavier"
    }
    bias_filler {
      type: "constant"
    }
  }
}
layer {
  name: "relu12"
  type: "ReLU"
  bottom: "conv12"
  top: "conv12"
}
layer {
  name: "conv13"
  type: "CuDNNHighway"
  bottom: "conv12"
  top: "conv13"
  param {
    lr_mult: 1
    decay_mult: 1
  }
  param {
    lr_mult: 1
    decay_mult: 1
  }
  param {
    lr_mult: 2
    decay_mult: 0
  }
  param {
    lr_mult: 2
    decay_mult: 0
  }
  highway_conv_param {
    num_output: 128
    pad: 1
    kernel_size: 3
    stride: 1
    weight_filler {
      type: "xavier"
    }
    bias_filler {
      type: "constant"
    }
    transform_bias_filler {
      type: "constant"
      value: -2
    }
  }
}
layer {
  name: "conv14"
  type: "CuDNNHighway"
  bottom: "conv13"
  top: "conv14"
  param {
    lr_mult: 1
    decay_mult: 1
  }
  param {
    lr_mult: 1
    decay_mult: 1
  }
  param {
    lr_mult: 2
    decay_mult: 0
  }
  param {
    lr_mult: 2
    decay_mult: 0
  }
  highway_conv_param {
    num_output: 128
    pad: 1
    kernel_size: 3
    stride: 1
    weight_filler {
      type: "xavier"
    }
    bias_filler {
      type: "constant"
    }
    transform_bias_filler {
      type: "constant"
      value: -2
    }
  }
}
layer {
  name: "conv15"
  type: "CuDNNHighway"
  bottom: "conv14"
  top: "conv15"
  param {
    lr_mult: 1
    decay_mult: 1
  }
  param {
    lr_mult: 1
    decay_mult: 1
  }
  param {
    lr_mult: 2
    decay_mult: 0
  }
  param {
    lr_mult: 2
    decay_mult: 0
  }
  highway_conv_param {
    num_output: 128
    pad: 1
    kernel_size: 3
    stride: 1
    weight_filler {
      type: "xavier"
    }
    bias_filler {
      type: "constant"
    }
    transform_bias_filler {
      type: "constant"
      value: -2
    }
  }
}
layer {
  name: "conv16"
  type: "CuDNNHighway"
  bottom: "conv15"
  top: "conv16"
  param {
    lr_mult: 1
    decay_mult: 1
  }
  param {
    lr_mult: 1
    decay_mult: 1
  }
  param {
    lr_mult: 2
    decay_mult: 0
  }
  param {
    lr_mult: 2
    decay_mult: 0
  }
  highway_conv_param {
    num_output: 128
    pad: 1
    kernel_size: 3
    stride: 1
    weight_filler {
      type: "xavier"
    }
    bias_filler {
      type: "constant"
    }
    transform_bias_filler {
      type: "constant"
      value: -2
    }
  }
}
layer {
  name: "conv17"
  type: "CuDNNHighway"
  bottom: "conv16"
  top: "conv17"
  param {
    lr_mult: 1
    decay_mult: 1
  }
  param {
    lr_mult: 1
    decay_mult: 1
  }
  param {
    lr_mult: 2
    decay_mult: 0
  }
  param {
    lr_mult: 2
    decay_mult: 0
  }
  highway_conv_param {
    num_output: 128
    pad: 1
    kernel_size: 3
    stride: 1
    weight_filler {
      type: "xavier"
    }
    bias_filler {
      type: "constant"
    }
    transform_bias_filler {
      type: "constant"
      value: -2
    }
  }
}
layer {
  name: "conv18"
  type: "Convolution"
  bottom: "conv17"
  top: "conv18"
  param {
    lr_mult: 1
    decay_mult: 1
  }
  param {
    lr_mult: 2
    decay_mult: 0
  }
  convolution_param {
    num_output: 100
    pad: 0
    kernel_size: 1
    stride: 1
    weight_filler {
      type: "xavier"
    }
    bias_filler {
      type: "constant"
    }
  }
}
layer {
  name: "relu"
  type: "ReLU"
  bottom: "conv18"
  top: "conv18"
}
layer {
  name: "pool3"
  type: "Pooling"
  bottom: "conv18"
  top: "pool3"
  pooling_param {
    pool: AVE
    kernel_size: 8
    stride: 8
  }
}
layer {
  name: "drop4"
  type: "Dropout"
  bottom: "pool3"
  top: "drop4"
  dropout_param {
    dropout_ratio: 0.2
  }
}
layer {
  name: "ip2"
  type: "InnerProduct"
  bottom: "drop4"
  top: "ip2"
  param {
    lr_mult: 1
    decay_mult: 10
  }
  param {
    lr_mult: 2
    decay_mult: 0
  }
  inner_product_param {
    num_output: 10
    weight_filler {
      type: "gaussian"
      std: 0.05
    }
    bias_filler {
      type: "constant"
    }
  }
}
layer {
  name: "accuracy"
  type: "Accuracy"
  bottom: "ip2"
  bottom: "label"
  top: "accuracy"
  include {
    phase: TEST
  }
}
layer {
  name: "loss"
  type: "SoftmaxWithLoss"
  bottom: "ip2"
  bottom: "label"
  top: "loss"
}
I0811 12:23:15.785002 15635 layer_factory.hpp:74] Creating layer cifar
I0811 12:23:15.785013 15635 net.cpp:87] Creating Layer cifar
I0811 12:23:15.785020 15635 net.cpp:345] cifar -> data
I0811 12:23:15.785029 15635 net.cpp:345] cifar -> label
I0811 12:23:15.785037 15635 net.cpp:116] Setting up cifar
I0811 12:23:15.787889 15635 db.cpp:20] Opened leveldb /home/data/cifar10-gcn-leveldb-splits/cifar10_test_leveldb
I0811 12:23:15.787999 15635 data_layer.cpp:67] output data size: 100,3,32,32
I0811 12:23:15.788009 15635 data_transformer.cpp:22] Loading mean file from: /home/data/cifar10-gcn-leveldb-splits/mean.binaryproto
I0811 12:23:15.788393 15635 net.cpp:123] Top shape: 100 3 32 32 (307200)
I0811 12:23:15.788403 15635 net.cpp:123] Top shape: 100 (100)
I0811 12:23:15.788408 15635 net.cpp:154] With 0 trainable parameters
I0811 12:23:15.788414 15635 layer_factory.hpp:74] Creating layer label_cifar_1_split
I0811 12:23:15.788424 15635 net.cpp:87] Creating Layer label_cifar_1_split
I0811 12:23:15.788429 15635 net.cpp:387] label_cifar_1_split <- label
I0811 12:23:15.788435 15635 net.cpp:345] label_cifar_1_split -> label_cifar_1_split_0
I0811 12:23:15.788444 15635 net.cpp:345] label_cifar_1_split -> label_cifar_1_split_1
I0811 12:23:15.788451 15635 net.cpp:116] Setting up label_cifar_1_split
I0811 12:23:15.788462 15635 net.cpp:123] Top shape: 100 (100)
I0811 12:23:15.788468 15635 net.cpp:123] Top shape: 100 (100)
I0811 12:23:15.788473 15635 net.cpp:154] With 0 trainable parameters
I0811 12:23:15.788477 15635 layer_factory.hpp:74] Creating layer drop1
I0811 12:23:15.788486 15635 net.cpp:87] Creating Layer drop1
I0811 12:23:15.788491 15635 net.cpp:387] drop1 <- data
I0811 12:23:15.788498 15635 net.cpp:345] drop1 -> drop1
I0811 12:23:15.788506 15635 net.cpp:116] Setting up drop1
I0811 12:23:15.788516 15635 net.cpp:123] Top shape: 100 3 32 32 (307200)
I0811 12:23:15.788521 15635 net.cpp:154] With 0 trainable parameters
I0811 12:23:15.788525 15635 layer_factory.hpp:74] Creating layer conv1
I0811 12:23:15.788533 15635 net.cpp:87] Creating Layer conv1
I0811 12:23:15.788538 15635 net.cpp:387] conv1 <- drop1
I0811 12:23:15.788545 15635 net.cpp:345] conv1 -> conv1
I0811 12:23:15.788552 15635 net.cpp:116] Setting up conv1
I0811 12:23:15.788857 15635 net.cpp:123] Top shape: 100 32 32 32 (3276800)
I0811 12:23:15.788869 15635 net.cpp:154] With 896 trainable parameters
I0811 12:23:15.788875 15635 layer_factory.hpp:74] Creating layer relu1
I0811 12:23:15.788887 15635 net.cpp:87] Creating Layer relu1
I0811 12:23:15.788892 15635 net.cpp:387] relu1 <- conv1
I0811 12:23:15.788899 15635 net.cpp:334] relu1 -> conv1 (in-place)
I0811 12:23:15.788907 15635 net.cpp:116] Setting up relu1
I0811 12:23:15.789034 15635 net.cpp:123] Top shape: 100 32 32 32 (3276800)
I0811 12:23:15.789043 15635 net.cpp:154] With 0 trainable parameters
I0811 12:23:15.789048 15635 layer_factory.hpp:74] Creating layer conv2
I0811 12:23:15.789058 15635 net.cpp:87] Creating Layer conv2
I0811 12:23:15.789063 15635 net.cpp:387] conv2 <- conv1
I0811 12:23:15.789072 15635 net.cpp:345] conv2 -> conv2
I0811 12:23:15.789079 15635 net.cpp:116] Setting up conv2
I0811 12:23:15.790020 15635 net.cpp:123] Top shape: 100 32 32 32 (3276800)
I0811 12:23:15.790035 15635 net.cpp:154] With 18496 trainable parameters
I0811 12:23:15.790046 15635 layer_factory.hpp:74] Creating layer conv3
I0811 12:23:15.790061 15635 net.cpp:87] Creating Layer conv3
I0811 12:23:15.790066 15635 net.cpp:387] conv3 <- conv2
I0811 12:23:15.790082 15635 net.cpp:345] conv3 -> conv3
I0811 12:23:15.790092 15635 net.cpp:116] Setting up conv3
I0811 12:23:15.791019 15635 net.cpp:123] Top shape: 100 32 32 32 (3276800)
I0811 12:23:15.791033 15635 net.cpp:154] With 18496 trainable parameters
I0811 12:23:15.791038 15635 layer_factory.hpp:74] Creating layer conv4
I0811 12:23:15.791048 15635 net.cpp:87] Creating Layer conv4
I0811 12:23:15.791054 15635 net.cpp:387] conv4 <- conv3
I0811 12:23:15.791060 15635 net.cpp:345] conv4 -> conv4
I0811 12:23:15.791070 15635 net.cpp:116] Setting up conv4
I0811 12:23:15.792021 15635 net.cpp:123] Top shape: 100 32 32 32 (3276800)
I0811 12:23:15.792033 15635 net.cpp:154] With 18496 trainable parameters
I0811 12:23:15.792038 15635 layer_factory.hpp:74] Creating layer conv5
I0811 12:23:15.792048 15635 net.cpp:87] Creating Layer conv5
I0811 12:23:15.792053 15635 net.cpp:387] conv5 <- conv4
I0811 12:23:15.792062 15635 net.cpp:345] conv5 -> conv5
I0811 12:23:15.792070 15635 net.cpp:116] Setting up conv5
I0811 12:23:15.792982 15635 net.cpp:123] Top shape: 100 32 32 32 (3276800)
I0811 12:23:15.792996 15635 net.cpp:154] With 18496 trainable parameters
I0811 12:23:15.793001 15635 layer_factory.hpp:74] Creating layer pool1
I0811 12:23:15.793011 15635 net.cpp:87] Creating Layer pool1
I0811 12:23:15.793016 15635 net.cpp:387] pool1 <- conv5
I0811 12:23:15.793023 15635 net.cpp:345] pool1 -> pool1
I0811 12:23:15.793031 15635 net.cpp:116] Setting up pool1
I0811 12:23:15.793089 15635 net.cpp:123] Top shape: 100 32 16 16 (819200)
I0811 12:23:15.793097 15635 net.cpp:154] With 0 trainable parameters
I0811 12:23:15.793100 15635 layer_factory.hpp:74] Creating layer drop2
I0811 12:23:15.793107 15635 net.cpp:87] Creating Layer drop2
I0811 12:23:15.793112 15635 net.cpp:387] drop2 <- pool1
I0811 12:23:15.793119 15635 net.cpp:345] drop2 -> drop2
I0811 12:23:15.793128 15635 net.cpp:116] Setting up drop2
I0811 12:23:15.793135 15635 net.cpp:123] Top shape: 100 32 16 16 (819200)
I0811 12:23:15.793140 15635 net.cpp:154] With 0 trainable parameters
I0811 12:23:15.793144 15635 layer_factory.hpp:74] Creating layer conv6
I0811 12:23:15.793153 15635 net.cpp:87] Creating Layer conv6
I0811 12:23:15.793157 15635 net.cpp:387] conv6 <- drop2
I0811 12:23:15.793165 15635 net.cpp:345] conv6 -> conv6
I0811 12:23:15.793174 15635 net.cpp:116] Setting up conv6
I0811 12:23:15.793982 15635 net.cpp:123] Top shape: 100 80 16 16 (2048000)
I0811 12:23:15.793992 15635 net.cpp:154] With 23120 trainable parameters
I0811 12:23:15.793998 15635 layer_factory.hpp:74] Creating layer relu6
I0811 12:23:15.794005 15635 net.cpp:87] Creating Layer relu6
I0811 12:23:15.794011 15635 net.cpp:387] relu6 <- conv6
I0811 12:23:15.794018 15635 net.cpp:334] relu6 -> conv6 (in-place)
I0811 12:23:15.794025 15635 net.cpp:116] Setting up relu6
I0811 12:23:15.794076 15635 net.cpp:123] Top shape: 100 80 16 16 (2048000)
I0811 12:23:15.794082 15635 net.cpp:154] With 0 trainable parameters
I0811 12:23:15.794087 15635 layer_factory.hpp:74] Creating layer conv7
I0811 12:23:15.794096 15635 net.cpp:87] Creating Layer conv7
I0811 12:23:15.794101 15635 net.cpp:387] conv7 <- conv6
I0811 12:23:15.794109 15635 net.cpp:345] conv7 -> conv7
I0811 12:23:15.794117 15635 net.cpp:116] Setting up conv7
I0811 12:23:15.797432 15635 net.cpp:123] Top shape: 100 80 16 16 (2048000)
I0811 12:23:15.797447 15635 net.cpp:154] With 115360 trainable parameters
I0811 12:23:15.797452 15635 layer_factory.hpp:74] Creating layer conv8
I0811 12:23:15.797462 15635 net.cpp:87] Creating Layer conv8
I0811 12:23:15.797467 15635 net.cpp:387] conv8 <- conv7
I0811 12:23:15.797474 15635 net.cpp:345] conv8 -> conv8
I0811 12:23:15.797483 15635 net.cpp:116] Setting up conv8
I0811 12:23:15.800798 15635 net.cpp:123] Top shape: 100 80 16 16 (2048000)
I0811 12:23:15.800812 15635 net.cpp:154] With 115360 trainable parameters
I0811 12:23:15.800818 15635 layer_factory.hpp:74] Creating layer conv9
I0811 12:23:15.800833 15635 net.cpp:87] Creating Layer conv9
I0811 12:23:15.800843 15635 net.cpp:387] conv9 <- conv8
I0811 12:23:15.800851 15635 net.cpp:345] conv9 -> conv9
I0811 12:23:15.800860 15635 net.cpp:116] Setting up conv9
I0811 12:23:15.804198 15635 net.cpp:123] Top shape: 100 80 16 16 (2048000)
I0811 12:23:15.804211 15635 net.cpp:154] With 115360 trainable parameters
I0811 12:23:15.804216 15635 layer_factory.hpp:74] Creating layer conv10
I0811 12:23:15.804230 15635 net.cpp:87] Creating Layer conv10
I0811 12:23:15.804235 15635 net.cpp:387] conv10 <- conv9
I0811 12:23:15.804244 15635 net.cpp:345] conv10 -> conv10
I0811 12:23:15.804252 15635 net.cpp:116] Setting up conv10
I0811 12:23:15.807585 15635 net.cpp:123] Top shape: 100 80 16 16 (2048000)
I0811 12:23:15.807602 15635 net.cpp:154] With 115360 trainable parameters
I0811 12:23:15.807607 15635 layer_factory.hpp:74] Creating layer conv11
I0811 12:23:15.807616 15635 net.cpp:87] Creating Layer conv11
I0811 12:23:15.807622 15635 net.cpp:387] conv11 <- conv10
I0811 12:23:15.807631 15635 net.cpp:345] conv11 -> conv11
I0811 12:23:15.807639 15635 net.cpp:116] Setting up conv11
I0811 12:23:15.810925 15635 net.cpp:123] Top shape: 100 80 16 16 (2048000)
I0811 12:23:15.810940 15635 net.cpp:154] With 115360 trainable parameters
I0811 12:23:15.810945 15635 layer_factory.hpp:74] Creating layer pool2
I0811 12:23:15.810953 15635 net.cpp:87] Creating Layer pool2
I0811 12:23:15.810958 15635 net.cpp:387] pool2 <- conv11
I0811 12:23:15.810966 15635 net.cpp:345] pool2 -> pool2
I0811 12:23:15.810973 15635 net.cpp:116] Setting up pool2
I0811 12:23:15.811033 15635 net.cpp:123] Top shape: 100 80 8 8 (512000)
I0811 12:23:15.811039 15635 net.cpp:154] With 0 trainable parameters
I0811 12:23:15.811044 15635 layer_factory.hpp:74] Creating layer drop3
I0811 12:23:15.811051 15635 net.cpp:87] Creating Layer drop3
I0811 12:23:15.811056 15635 net.cpp:387] drop3 <- pool2
I0811 12:23:15.811063 15635 net.cpp:345] drop3 -> drop3
I0811 12:23:15.811070 15635 net.cpp:116] Setting up drop3
I0811 12:23:15.811079 15635 net.cpp:123] Top shape: 100 80 8 8 (512000)
I0811 12:23:15.811082 15635 net.cpp:154] With 0 trainable parameters
I0811 12:23:15.811087 15635 layer_factory.hpp:74] Creating layer conv12
I0811 12:23:15.811100 15635 net.cpp:87] Creating Layer conv12
I0811 12:23:15.811105 15635 net.cpp:387] conv12 <- drop3
I0811 12:23:15.811113 15635 net.cpp:345] conv12 -> conv12
I0811 12:23:15.811121 15635 net.cpp:116] Setting up conv12
I0811 12:23:15.813650 15635 net.cpp:123] Top shape: 100 128 8 8 (819200)
I0811 12:23:15.813663 15635 net.cpp:154] With 92288 trainable parameters
I0811 12:23:15.813668 15635 layer_factory.hpp:74] Creating layer relu12
I0811 12:23:15.813678 15635 net.cpp:87] Creating Layer relu12
I0811 12:23:15.813683 15635 net.cpp:387] relu12 <- conv12
I0811 12:23:15.813689 15635 net.cpp:334] relu12 -> conv12 (in-place)
I0811 12:23:15.813696 15635 net.cpp:116] Setting up relu12
I0811 12:23:15.813822 15635 net.cpp:123] Top shape: 100 128 8 8 (819200)
I0811 12:23:15.813829 15635 net.cpp:154] With 0 trainable parameters
I0811 12:23:15.813834 15635 layer_factory.hpp:74] Creating layer conv13
I0811 12:23:15.813844 15635 net.cpp:87] Creating Layer conv13
I0811 12:23:15.813849 15635 net.cpp:387] conv13 <- conv12
I0811 12:23:15.813858 15635 net.cpp:345] conv13 -> conv13
I0811 12:23:15.813865 15635 net.cpp:116] Setting up conv13
I0811 12:23:15.821638 15635 net.cpp:123] Top shape: 100 128 8 8 (819200)
I0811 12:23:15.821657 15635 net.cpp:154] With 295168 trainable parameters
I0811 12:23:15.821663 15635 layer_factory.hpp:74] Creating layer conv14
I0811 12:23:15.821673 15635 net.cpp:87] Creating Layer conv14
I0811 12:23:15.821678 15635 net.cpp:387] conv14 <- conv13
I0811 12:23:15.821688 15635 net.cpp:345] conv14 -> conv14
I0811 12:23:15.821698 15635 net.cpp:116] Setting up conv14
I0811 12:23:15.829476 15635 net.cpp:123] Top shape: 100 128 8 8 (819200)
I0811 12:23:15.829490 15635 net.cpp:154] With 295168 trainable parameters
I0811 12:23:15.829496 15635 layer_factory.hpp:74] Creating layer conv15
I0811 12:23:15.829515 15635 net.cpp:87] Creating Layer conv15
I0811 12:23:15.829527 15635 net.cpp:387] conv15 <- conv14
I0811 12:23:15.829535 15635 net.cpp:345] conv15 -> conv15
I0811 12:23:15.829543 15635 net.cpp:116] Setting up conv15
I0811 12:23:15.837658 15635 net.cpp:123] Top shape: 100 128 8 8 (819200)
I0811 12:23:15.837679 15635 net.cpp:154] With 295168 trainable parameters
I0811 12:23:15.837687 15635 layer_factory.hpp:74] Creating layer conv16
I0811 12:23:15.837697 15635 net.cpp:87] Creating Layer conv16
I0811 12:23:15.837702 15635 net.cpp:387] conv16 <- conv15
I0811 12:23:15.837724 15635 net.cpp:345] conv16 -> conv16
I0811 12:23:15.837734 15635 net.cpp:116] Setting up conv16
I0811 12:23:15.845412 15635 net.cpp:123] Top shape: 100 128 8 8 (819200)
I0811 12:23:15.845427 15635 net.cpp:154] With 295168 trainable parameters
I0811 12:23:15.845433 15635 layer_factory.hpp:74] Creating layer conv17
I0811 12:23:15.845444 15635 net.cpp:87] Creating Layer conv17
I0811 12:23:15.845450 15635 net.cpp:387] conv17 <- conv16
I0811 12:23:15.845458 15635 net.cpp:345] conv17 -> conv17
I0811 12:23:15.845468 15635 net.cpp:116] Setting up conv17
I0811 12:23:15.853272 15635 net.cpp:123] Top shape: 100 128 8 8 (819200)
I0811 12:23:15.853288 15635 net.cpp:154] With 295168 trainable parameters
I0811 12:23:15.853293 15635 layer_factory.hpp:74] Creating layer conv18
I0811 12:23:15.853305 15635 net.cpp:87] Creating Layer conv18
I0811 12:23:15.853310 15635 net.cpp:387] conv18 <- conv17
I0811 12:23:15.853319 15635 net.cpp:345] conv18 -> conv18
I0811 12:23:15.853328 15635 net.cpp:116] Setting up conv18
I0811 12:23:15.853937 15635 net.cpp:123] Top shape: 100 100 8 8 (640000)
I0811 12:23:15.853948 15635 net.cpp:154] With 12900 trainable parameters
I0811 12:23:15.853953 15635 layer_factory.hpp:74] Creating layer relu
I0811 12:23:15.853961 15635 net.cpp:87] Creating Layer relu
I0811 12:23:15.853966 15635 net.cpp:387] relu <- conv18
I0811 12:23:15.853972 15635 net.cpp:334] relu -> conv18 (in-place)
I0811 12:23:15.853979 15635 net.cpp:116] Setting up relu
I0811 12:23:15.854034 15635 net.cpp:123] Top shape: 100 100 8 8 (640000)
I0811 12:23:15.854040 15635 net.cpp:154] With 0 trainable parameters
I0811 12:23:15.854044 15635 layer_factory.hpp:74] Creating layer pool3
I0811 12:23:15.854053 15635 net.cpp:87] Creating Layer pool3
I0811 12:23:15.854058 15635 net.cpp:387] pool3 <- conv18
I0811 12:23:15.854064 15635 net.cpp:345] pool3 -> pool3
I0811 12:23:15.854073 15635 net.cpp:116] Setting up pool3
I0811 12:23:15.854153 15635 net.cpp:123] Top shape: 100 100 1 1 (10000)
I0811 12:23:15.854161 15635 net.cpp:154] With 0 trainable parameters
I0811 12:23:15.854166 15635 layer_factory.hpp:74] Creating layer drop4
I0811 12:23:15.854172 15635 net.cpp:87] Creating Layer drop4
I0811 12:23:15.854177 15635 net.cpp:387] drop4 <- pool3
I0811 12:23:15.854184 15635 net.cpp:345] drop4 -> drop4
I0811 12:23:15.854192 15635 net.cpp:116] Setting up drop4
I0811 12:23:15.854200 15635 net.cpp:123] Top shape: 100 100 1 1 (10000)
I0811 12:23:15.854205 15635 net.cpp:154] With 0 trainable parameters
I0811 12:23:15.854209 15635 layer_factory.hpp:74] Creating layer ip2
I0811 12:23:15.854218 15635 net.cpp:87] Creating Layer ip2
I0811 12:23:15.854223 15635 net.cpp:387] ip2 <- drop4
I0811 12:23:15.854229 15635 net.cpp:345] ip2 -> ip2
I0811 12:23:15.854238 15635 net.cpp:116] Setting up ip2
I0811 12:23:15.854274 15635 net.cpp:123] Top shape: 100 10 (1000)
I0811 12:23:15.854286 15635 net.cpp:154] With 1010 trainable parameters
I0811 12:23:15.854291 15635 layer_factory.hpp:74] Creating layer ip2_ip2_0_split
I0811 12:23:15.854300 15635 net.cpp:87] Creating Layer ip2_ip2_0_split
I0811 12:23:15.854305 15635 net.cpp:387] ip2_ip2_0_split <- ip2
I0811 12:23:15.854312 15635 net.cpp:345] ip2_ip2_0_split -> ip2_ip2_0_split_0
I0811 12:23:15.854321 15635 net.cpp:345] ip2_ip2_0_split -> ip2_ip2_0_split_1
I0811 12:23:15.854327 15635 net.cpp:116] Setting up ip2_ip2_0_split
I0811 12:23:15.854334 15635 net.cpp:123] Top shape: 100 10 (1000)
I0811 12:23:15.854341 15635 net.cpp:123] Top shape: 100 10 (1000)
I0811 12:23:15.854353 15635 net.cpp:154] With 0 trainable parameters
I0811 12:23:15.854363 15635 layer_factory.hpp:74] Creating layer accuracy
I0811 12:23:15.854375 15635 net.cpp:87] Creating Layer accuracy
I0811 12:23:15.854380 15635 net.cpp:387] accuracy <- ip2_ip2_0_split_0
I0811 12:23:15.854387 15635 net.cpp:387] accuracy <- label_cifar_1_split_0
I0811 12:23:15.854394 15635 net.cpp:345] accuracy -> accuracy
…
