…
I0604 15:14:01.370275  5824 net.cpp:264] The NetState phase (0) differed from the phase (1) specified by a rule in layer accuracy
I0604 15:14:01.370792  5824 net.cpp:42] Initializing net from parameters: 
name: "CIFAR10_19layers"
state {
  phase: TRAIN
}
layer {
  name: "cifar"
  type: "Data"
  top: "data"
  top: "label"
  include {
    phase: TRAIN
  }
  transform_param {
    mirror: true
    crop_size: 32
    mean_file: "/home/data/cifar10-gcn-leveldb-splits/paddedmean.binaryproto"
  }
  data_param {
    source: "/home/data/cifar10-gcn-leveldb-splits/cifar10_full_train_leveldb_padded"
    batch_size: 100
    backend: LEVELDB
  }
}
layer {
  name: "drop1"
  type: "Dropout"
  bottom: "data"
  top: "drop1"
  dropout_param {
    dropout_ratio: 0.2
  }
}
layer {
  name: "conv1"
  type: "Convolution"
  bottom: "drop1"
  top: "conv1"
  param {
    lr_mult: 1
    decay_mult: 1
  }
  param {
    lr_mult: 2
    decay_mult: 0
  }
  convolution_param {
    num_output: 32
    pad: 1
    kernel_size: 3
    stride: 1
    weight_filler {
      type: "gaussian"
      value: 0.05
    }
    bias_filler {
      type: "constant"
    }
  }
}
layer {
  name: "relu1"
  type: "ReLU"
  bottom: "conv1"
  top: "conv1"
}
layer {
  name: "conv2"
  type: "CuDNNHighway"
  bottom: "conv1"
  top: "conv2"
  param {
    lr_mult: 1
    decay_mult: 1
  }
  param {
    lr_mult: 1
    decay_mult: 1
  }
  param {
    lr_mult: 2
    decay_mult: 0
  }
  param {
    lr_mult: 2
    decay_mult: 0
  }
  highway_conv_param {
    num_output: 32
    pad: 1
    kernel_size: 3
    stride: 1
    weight_filler {
      type: "xavier"
    }
    bias_filler {
      type: "constant"
    }
    transform_bias_filler {
      type: "constant"
      value: -2
    }
  }
}
layer {
  name: "conv3"
  type: "CuDNNHighway"
  bottom: "conv2"
  top: "conv3"
  param {
    lr_mult: 1
    decay_mult: 1
  }
  param {
    lr_mult: 1
    decay_mult: 1
  }
  param {
    lr_mult: 2
    decay_mult: 0
  }
  param {
    lr_mult: 2
    decay_mult: 0
  }
  highway_conv_param {
    num_output: 32
    pad: 1
    kernel_size: 3
    stride: 1
    weight_filler {
      type: "xavier"
    }
    bias_filler {
      type: "constant"
    }
    transform_bias_filler {
      type: "constant"
      value: -2
    }
  }
}
layer {
  name: "conv4"
  type: "CuDNNHighway"
  bottom: "conv3"
  top: "conv4"
  param {
    lr_mult: 1
    decay_mult: 1
  }
  param {
    lr_mult: 1
    decay_mult: 1
  }
  param {
    lr_mult: 2
    decay_mult: 0
  }
  param {
    lr_mult: 2
    decay_mult: 0
  }
  highway_conv_param {
    num_output: 32
    pad: 1
    kernel_size: 3
    stride: 1
    weight_filler {
      type: "xavier"
    }
    bias_filler {
      type: "constant"
    }
    transform_bias_filler {
      type: "constant"
      value: -2
    }
  }
}
layer {
  name: "conv5"
  type: "CuDNNHighway"
  bottom: "conv4"
  top: "conv5"
  param {
    lr_mult: 1
    decay_mult: 1
  }
  param {
    lr_mult: 1
    decay_mult: 1
  }
  param {
    lr_mult: 2
    decay_mult: 0
  }
  param {
    lr_mult: 2
    decay_mult: 0
  }
  highway_conv_param {
    num_output: 32
    pad: 1
    kernel_size: 3
    stride: 1
    weight_filler {
      type: "xavier"
    }
    bias_filler {
      type: "constant"
    }
    transform_bias_filler {
      type: "constant"
      value: -2
    }
  }
}
layer {
  name: "pool1"
  type: "Pooling"
  bottom: "conv5"
  top: "pool1"
  pooling_param {
    pool: MAX
    kernel_size: 2
    stride: 2
  }
}
layer {
  name: "drop2"
  type: "Dropout"
  bottom: "pool1"
  top: "drop2"
  dropout_param {
    dropout_ratio: 0.2
  }
}
layer {
  name: "conv6"
  type: "Convolution"
  bottom: "drop2"
  top: "conv6"
  param {
    lr_mult: 1
    decay_mult: 1
  }
  param {
    lr_mult: 2
    decay_mult: 0
  }
  convolution_param {
    num_output: 80
    pad: 1
    kernel_size: 3
    stride: 1
    weight_filler {
      type: "xavier"
    }
    bias_filler {
      type: "constant"
    }
  }
}
layer {
  name: "relu6"
  type: "ReLU"
  bottom: "conv6"
  top: "conv6"
}
layer {
  name: "conv7"
  type: "CuDNNHighway"
  bottom: "conv6"
  top: "conv7"
  param {
    lr_mult: 1
    decay_mult: 1
  }
  param {
    lr_mult: 1
    decay_mult: 1
  }
  param {
    lr_mult: 2
    decay_mult: 0
  }
  param {
    lr_mult: 2
    decay_mult: 0
  }
  highway_conv_param {
    num_output: 80
    pad: 1
    kernel_size: 3
    stride: 1
    weight_filler {
      type: "xavier"
    }
    bias_filler {
      type: "constant"
    }
    transform_bias_filler {
      type: "constant"
      value: -2
    }
  }
}
layer {
  name: "conv8"
  type: "CuDNNHighway"
  bottom: "conv7"
  top: "conv8"
  param {
    lr_mult: 1
    decay_mult: 1
  }
  param {
    lr_mult: 1
    decay_mult: 1
  }
  param {
    lr_mult: 2
    decay_mult: 0
  }
  param {
    lr_mult: 2
    decay_mult: 0
  }
  highway_conv_param {
    num_output: 80
    pad: 1
    kernel_size: 3
    stride: 1
    weight_filler {
      type: "xavier"
    }
    bias_filler {
      type: "constant"
    }
    transform_bias_filler {
      type: "constant"
      value: -2
    }
  }
}
layer {
  name: "conv9"
  type: "CuDNNHighway"
  bottom: "conv8"
  top: "conv9"
  param {
    lr_mult: 1
    decay_mult: 1
  }
  param {
    lr_mult: 1
    decay_mult: 1
  }
  param {
    lr_mult: 2
    decay_mult: 0
  }
  param {
    lr_mult: 2
    decay_mult: 0
  }
  highway_conv_param {
    num_output: 80
    pad: 1
    kernel_size: 3
    stride: 1
    weight_filler {
      type: "xavier"
    }
    bias_filler {
      type: "constant"
    }
    transform_bias_filler {
      type: "constant"
      value: -2
    }
  }
}
layer {
  name: "conv10"
  type: "CuDNNHighway"
  bottom: "conv9"
  top: "conv10"
  param {
    lr_mult: 1
    decay_mult: 1
  }
  param {
    lr_mult: 1
    decay_mult: 1
  }
  param {
    lr_mult: 2
    decay_mult: 0
  }
  param {
    lr_mult: 2
    decay_mult: 0
  }
  highway_conv_param {
    num_output: 80
    pad: 1
    kernel_size: 3
    stride: 1
    weight_filler {
      type: "xavier"
    }
    bias_filler {
      type: "constant"
    }
    transform_bias_filler {
      type: "constant"
      value: -2
    }
  }
}
layer {
  name: "conv11"
  type: "CuDNNHighway"
  bottom: "conv10"
  top: "conv11"
  param {
    lr_mult: 1
    decay_mult: 1
  }
  param {
    lr_mult: 1
    decay_mult: 1
  }
  param {
    lr_mult: 2
    decay_mult: 0
  }
  param {
    lr_mult: 2
    decay_mult: 0
  }
  highway_conv_param {
    num_output: 80
    pad: 1
    kernel_size: 3
    stride: 1
    weight_filler {
      type: "xavier"
    }
    bias_filler {
      type: "constant"
    }
    transform_bias_filler {
      type: "constant"
      value: -2
    }
  }
}
layer {
  name: "pool2"
  type: "Pooling"
  bottom: "conv11"
  top: "pool2"
  pooling_param {
    pool: MAX
    kernel_size: 2
    stride: 2
  }
}
layer {
  name: "drop3"
  type: "Dropout"
  bottom: "pool2"
  top: "drop3"
  dropout_param {
    dropout_ratio: 0.2
  }
}
layer {
  name: "conv12"
  type: "Convolution"
  bottom: "drop3"
  top: "conv12"
  param {
    lr_mult: 1
    decay_mult: 1
  }
  param {
    lr_mult: 2
    decay_mult: 0
  }
  convolution_param {
    num_output: 128
    pad: 1
    kernel_size: 3
    stride: 1
    weight_filler {
      type: "xavier"
    }
    bias_filler {
      type: "constant"
    }
  }
}
layer {
  name: "relu12"
  type: "ReLU"
  bottom: "conv12"
  top: "conv12"
}
layer {
  name: "conv13"
  type: "CuDNNHighway"
  bottom: "conv12"
  top: "conv13"
  param {
    lr_mult: 1
    decay_mult: 1
  }
  param {
    lr_mult: 1
    decay_mult: 1
  }
  param {
    lr_mult: 2
    decay_mult: 0
  }
  param {
    lr_mult: 2
    decay_mult: 0
  }
  highway_conv_param {
    num_output: 128
    pad: 1
    kernel_size: 3
    stride: 1
    weight_filler {
      type: "xavier"
    }
    bias_filler {
      type: "constant"
    }
    transform_bias_filler {
      type: "constant"
      value: -2
    }
  }
}
layer {
  name: "conv14"
  type: "CuDNNHighway"
  bottom: "conv13"
  top: "conv14"
  param {
    lr_mult: 1
    decay_mult: 1
  }
  param {
    lr_mult: 1
    decay_mult: 1
  }
  param {
    lr_mult: 2
    decay_mult: 0
  }
  param {
    lr_mult: 2
    decay_mult: 0
  }
  highway_conv_param {
    num_output: 128
    pad: 1
    kernel_size: 3
    stride: 1
    weight_filler {
      type: "xavier"
    }
    bias_filler {
      type: "constant"
    }
    transform_bias_filler {
      type: "constant"
      value: -2
    }
  }
}
layer {
  name: "conv15"
  type: "CuDNNHighway"
  bottom: "conv14"
  top: "conv15"
  param {
    lr_mult: 1
    decay_mult: 1
  }
  param {
    lr_mult: 1
    decay_mult: 1
  }
  param {
    lr_mult: 2
    decay_mult: 0
  }
  param {
    lr_mult: 2
    decay_mult: 0
  }
  highway_conv_param {
    num_output: 128
    pad: 1
    kernel_size: 3
    stride: 1
    weight_filler {
      type: "xavier"
    }
    bias_filler {
      type: "constant"
    }
    transform_bias_filler {
      type: "constant"
      value: -2
    }
  }
}
layer {
  name: "conv16"
  type: "CuDNNHighway"
  bottom: "conv15"
  top: "conv16"
  param {
    lr_mult: 1
    decay_mult: 1
  }
  param {
    lr_mult: 1
    decay_mult: 1
  }
  param {
    lr_mult: 2
    decay_mult: 0
  }
  param {
    lr_mult: 2
    decay_mult: 0
  }
  highway_conv_param {
    num_output: 128
    pad: 1
    kernel_size: 3
    stride: 1
    weight_filler {
      type: "xavier"
    }
    bias_filler {
      type: "constant"
    }
    transform_bias_filler {
      type: "constant"
      value: -2
    }
  }
}
layer {
  name: "conv17"
  type: "CuDNNHighway"
  bottom: "conv16"
  top: "conv17"
  param {
    lr_mult: 1
    decay_mult: 1
  }
  param {
    lr_mult: 1
    decay_mult: 1
  }
  param {
    lr_mult: 2
    decay_mult: 0
  }
  param {
    lr_mult: 2
    decay_mult: 0
  }
  highway_conv_param {
    num_output: 128
    pad: 1
    kernel_size: 3
    stride: 1
    weight_filler {
      type: "xavier"
    }
    bias_filler {
      type: "constant"
    }
    transform_bias_filler {
      type: "constant"
      value: -2
    }
  }
}
layer {
  name: "conv18"
  type: "Convolution"
  bottom: "conv17"
  top: "conv18"
  param {
    lr_mult: 1
    decay_mult: 1
  }
  param {
    lr_mult: 2
    decay_mult: 0
  }
  convolution_param {
    num_output: 100
    pad: 0
    kernel_size: 1
    stride: 1
    weight_filler {
      type: "xavier"
    }
    bias_filler {
      type: "constant"
    }
  }
}
layer {
  name: "relu"
  type: "ReLU"
  bottom: "conv18"
  top: "conv18"
}
layer {
  name: "pool3"
  type: "Pooling"
  bottom: "conv18"
  top: "pool3"
  pooling_param {
    pool: AVE
    kernel_size: 8
    stride: 8
  }
}
layer {
  name: "drop4"
  type: "Dropout"
  bottom: "pool3"
  top: "drop4"
  dropout_param {
    dropout_ratio: 0.2
  }
}
layer {
  name: "ip2"
  type: "InnerProduct"
  bottom: "drop4"
  top: "ip2"
  param {
    lr_mult: 1
    decay_mult: 10
  }
  param {
    lr_mult: 2
    decay_mult: 0
  }
  inner_product_param {
    num_output: 100
    weight_filler {
      type: "gaussian"
      std: 0.05
    }
    bias_filler {
      type: "constant"
    }
  }
}
layer {
  name: "loss"
  type: "SoftmaxWithLoss"
  bottom: "ip2"
  bottom: "label"
  top: "loss"
}
I0604 15:14:01.370976  5824 layer_factory.hpp:74] Creating layer cifar
I0604 15:14:01.371011  5824 net.cpp:87] Creating Layer cifar
I0604 15:14:01.371021  5824 net.cpp:345] cifar -> data
I0604 15:14:01.371049  5824 net.cpp:345] cifar -> label
I0604 15:14:01.371064  5824 net.cpp:116] Setting up cifar
I0604 15:14:01.514574  5824 db.cpp:20] Opened leveldb /home/data/cifar10-gcn-leveldb-splits/cifar10_full_train_leveldb_padded
I0604 15:14:01.514757  5824 data_layer.cpp:67] output data size: 100,3,32,32
I0604 15:14:01.514771  5824 data_transformer.cpp:22] Loading mean file from: /home/data/cifar10-gcn-leveldb-splits/paddedmean.binaryproto
I0604 15:14:01.515112  5824 net.cpp:123] Top shape: 100 3 32 32 (307200)
I0604 15:14:01.515120  5824 net.cpp:123] Top shape: 100 (100)
I0604 15:14:01.515125  5824 net.cpp:154] With 0 trainable parameters
I0604 15:14:01.515128  5824 layer_factory.hpp:74] Creating layer drop1
I0604 15:14:01.515141  5824 net.cpp:87] Creating Layer drop1
I0604 15:14:01.515144  5824 net.cpp:387] drop1 <- data
I0604 15:14:01.515152  5824 net.cpp:345] drop1 -> drop1
I0604 15:14:01.515161  5824 net.cpp:116] Setting up drop1
I0604 15:14:01.515172  5824 net.cpp:123] Top shape: 100 3 32 32 (307200)
I0604 15:14:01.515174  5824 net.cpp:154] With 0 trainable parameters
I0604 15:14:01.515177  5824 layer_factory.hpp:74] Creating layer conv1
I0604 15:14:01.515187  5824 net.cpp:87] Creating Layer conv1
I0604 15:14:01.515190  5824 net.cpp:387] conv1 <- drop1
I0604 15:14:01.515194  5824 net.cpp:345] conv1 -> conv1
I0604 15:14:01.515202  5824 net.cpp:116] Setting up conv1
I0604 15:14:01.582168  5824 net.cpp:123] Top shape: 100 32 32 32 (3276800)
I0604 15:14:01.582202  5824 net.cpp:154] With 896 trainable parameters
I0604 15:14:01.582208  5824 layer_factory.hpp:74] Creating layer relu1
I0604 15:14:01.582217  5824 net.cpp:87] Creating Layer relu1
I0604 15:14:01.582221  5824 net.cpp:387] relu1 <- conv1
I0604 15:14:01.582227  5824 net.cpp:334] relu1 -> conv1 (in-place)
I0604 15:14:01.582234  5824 net.cpp:116] Setting up relu1
I0604 15:14:01.582274  5824 net.cpp:123] Top shape: 100 32 32 32 (3276800)
I0604 15:14:01.582278  5824 net.cpp:154] With 0 trainable parameters
I0604 15:14:01.582283  5824 layer_factory.hpp:74] Creating layer conv2
I0604 15:14:01.582296  5824 net.cpp:87] Creating Layer conv2
I0604 15:14:01.582300  5824 net.cpp:387] conv2 <- conv1
I0604 15:14:01.582305  5824 net.cpp:345] conv2 -> conv2
I0604 15:14:01.582314  5824 net.cpp:116] Setting up conv2
I0604 15:14:01.583091  5824 net.cpp:123] Top shape: 100 32 32 32 (3276800)
I0604 15:14:01.583104  5824 net.cpp:154] With 18496 trainable parameters
I0604 15:14:01.583107  5824 layer_factory.hpp:74] Creating layer conv3
I0604 15:14:01.583113  5824 net.cpp:87] Creating Layer conv3
I0604 15:14:01.583117  5824 net.cpp:387] conv3 <- conv2
I0604 15:14:01.583122  5824 net.cpp:345] conv3 -> conv3
I0604 15:14:01.583127  5824 net.cpp:116] Setting up conv3
I0604 15:14:01.584204  5824 net.cpp:123] Top shape: 100 32 32 32 (3276800)
I0604 15:14:01.584393  5824 net.cpp:154] With 18496 trainable parameters
I0604 15:14:01.584398  5824 layer_factory.hpp:74] Creating layer conv4
I0604 15:14:01.584403  5824 net.cpp:87] Creating Layer conv4
I0604 15:14:01.584406  5824 net.cpp:387] conv4 <- conv3
I0604 15:14:01.584411  5824 net.cpp:345] conv4 -> conv4
I0604 15:14:01.584417  5824 net.cpp:116] Setting up conv4
I0604 15:14:01.585566  5824 net.cpp:123] Top shape: 100 32 32 32 (3276800)
I0604 15:14:01.585577  5824 net.cpp:154] With 18496 trainable parameters
I0604 15:14:01.585579  5824 layer_factory.hpp:74] Creating layer conv5
I0604 15:14:01.585585  5824 net.cpp:87] Creating Layer conv5
I0604 15:14:01.585588  5824 net.cpp:387] conv5 <- conv4
I0604 15:14:01.585593  5824 net.cpp:345] conv5 -> conv5
I0604 15:14:01.585598  5824 net.cpp:116] Setting up conv5
I0604 15:14:01.586408  5824 net.cpp:123] Top shape: 100 32 32 32 (3276800)
I0604 15:14:01.586421  5824 net.cpp:154] With 18496 trainable parameters
I0604 15:14:01.586423  5824 layer_factory.hpp:74] Creating layer pool1
I0604 15:14:01.586439  5824 net.cpp:87] Creating Layer pool1
I0604 15:14:01.586452  5824 net.cpp:387] pool1 <- conv5
I0604 15:14:01.586457  5824 net.cpp:345] pool1 -> pool1
I0604 15:14:01.586462  5824 net.cpp:116] Setting up pool1
I0604 15:14:01.586534  5824 net.cpp:123] Top shape: 100 32 16 16 (819200)
I0604 15:14:01.586544  5824 net.cpp:154] With 0 trainable parameters
I0604 15:14:01.586546  5824 layer_factory.hpp:74] Creating layer drop2
I0604 15:14:01.586552  5824 net.cpp:87] Creating Layer drop2
I0604 15:14:01.586555  5824 net.cpp:387] drop2 <- pool1
I0604 15:14:01.586560  5824 net.cpp:345] drop2 -> drop2
I0604 15:14:01.586565  5824 net.cpp:116] Setting up drop2
I0604 15:14:01.586570  5824 net.cpp:123] Top shape: 100 32 16 16 (819200)
I0604 15:14:01.586572  5824 net.cpp:154] With 0 trainable parameters
I0604 15:14:01.586575  5824 layer_factory.hpp:74] Creating layer conv6
I0604 15:14:01.586582  5824 net.cpp:87] Creating Layer conv6
I0604 15:14:01.586585  5824 net.cpp:387] conv6 <- drop2
I0604 15:14:01.586590  5824 net.cpp:345] conv6 -> conv6
I0604 15:14:01.586594  5824 net.cpp:116] Setting up conv6
I0604 15:14:01.587278  5824 net.cpp:123] Top shape: 100 80 16 16 (2048000)
I0604 15:14:01.587286  5824 net.cpp:154] With 23120 trainable parameters
I0604 15:14:01.587290  5824 layer_factory.hpp:74] Creating layer relu6
I0604 15:14:01.587294  5824 net.cpp:87] Creating Layer relu6
I0604 15:14:01.587296  5824 net.cpp:387] relu6 <- conv6
I0604 15:14:01.587301  5824 net.cpp:334] relu6 -> conv6 (in-place)
I0604 15:14:01.587306  5824 net.cpp:116] Setting up relu6
I0604 15:14:01.587340  5824 net.cpp:123] Top shape: 100 80 16 16 (2048000)
I0604 15:14:01.587344  5824 net.cpp:154] With 0 trainable parameters
I0604 15:14:01.587347  5824 layer_factory.hpp:74] Creating layer conv7
I0604 15:14:01.587352  5824 net.cpp:87] Creating Layer conv7
I0604 15:14:01.587354  5824 net.cpp:387] conv7 <- conv6
I0604 15:14:01.587359  5824 net.cpp:345] conv7 -> conv7
I0604 15:14:01.587364  5824 net.cpp:116] Setting up conv7
I0604 15:14:01.590054  5824 net.cpp:123] Top shape: 100 80 16 16 (2048000)
I0604 15:14:01.590067  5824 net.cpp:154] With 115360 trainable parameters
I0604 15:14:01.590071  5824 layer_factory.hpp:74] Creating layer conv8
I0604 15:14:01.590077  5824 net.cpp:87] Creating Layer conv8
I0604 15:14:01.590080  5824 net.cpp:387] conv8 <- conv7
I0604 15:14:01.590085  5824 net.cpp:345] conv8 -> conv8
I0604 15:14:01.590092  5824 net.cpp:116] Setting up conv8
I0604 15:14:01.593427  5824 net.cpp:123] Top shape: 100 80 16 16 (2048000)
I0604 15:14:01.593456  5824 net.cpp:154] With 115360 trainable parameters
I0604 15:14:01.593463  5824 layer_factory.hpp:74] Creating layer conv9
I0604 15:14:01.593477  5824 net.cpp:87] Creating Layer conv9
I0604 15:14:01.593482  5824 net.cpp:387] conv9 <- conv8
I0604 15:14:01.593492  5824 net.cpp:345] conv9 -> conv9
I0604 15:14:01.593503  5824 net.cpp:116] Setting up conv9
I0604 15:14:01.597409  5824 net.cpp:123] Top shape: 100 80 16 16 (2048000)
I0604 15:14:01.597426  5824 net.cpp:154] With 115360 trainable parameters
I0604 15:14:01.597432  5824 layer_factory.hpp:74] Creating layer conv10
I0604 15:14:01.597442  5824 net.cpp:87] Creating Layer conv10
I0604 15:14:01.597447  5824 net.cpp:387] conv10 <- conv9
I0604 15:14:01.597455  5824 net.cpp:345] conv10 -> conv10
I0604 15:14:01.597465  5824 net.cpp:116] Setting up conv10
I0604 15:14:01.601374  5824 net.cpp:123] Top shape: 100 80 16 16 (2048000)
I0604 15:14:01.601397  5824 net.cpp:154] With 115360 trainable parameters
I0604 15:14:01.601403  5824 layer_factory.hpp:74] Creating layer conv11
I0604 15:14:01.601416  5824 net.cpp:87] Creating Layer conv11
I0604 15:14:01.601421  5824 net.cpp:387] conv11 <- conv10
I0604 15:14:01.601429  5824 net.cpp:345] conv11 -> conv11
I0604 15:14:01.601438  5824 net.cpp:116] Setting up conv11
I0604 15:14:01.605360  5824 net.cpp:123] Top shape: 100 80 16 16 (2048000)
I0604 15:14:01.605375  5824 net.cpp:154] With 115360 trainable parameters
I0604 15:14:01.605381  5824 layer_factory.hpp:74] Creating layer pool2
I0604 15:14:01.605389  5824 net.cpp:87] Creating Layer pool2
I0604 15:14:01.605402  5824 net.cpp:387] pool2 <- conv11
I0604 15:14:01.605423  5824 net.cpp:345] pool2 -> pool2
I0604 15:14:01.605437  5824 net.cpp:116] Setting up pool2
I0604 15:14:01.605610  5824 net.cpp:123] Top shape: 100 80 8 8 (512000)
I0604 15:14:01.605619  5824 net.cpp:154] With 0 trainable parameters
I0604 15:14:01.605624  5824 layer_factory.hpp:74] Creating layer drop3
I0604 15:14:01.605633  5824 net.cpp:87] Creating Layer drop3
I0604 15:14:01.605638  5824 net.cpp:387] drop3 <- pool2
I0604 15:14:01.605644  5824 net.cpp:345] drop3 -> drop3
I0604 15:14:01.605653  5824 net.cpp:116] Setting up drop3
I0604 15:14:01.605661  5824 net.cpp:123] Top shape: 100 80 8 8 (512000)
I0604 15:14:01.605666  5824 net.cpp:154] With 0 trainable parameters
I0604 15:14:01.605670  5824 layer_factory.hpp:74] Creating layer conv12
I0604 15:14:01.605679  5824 net.cpp:87] Creating Layer conv12
I0604 15:14:01.605684  5824 net.cpp:387] conv12 <- drop3
I0604 15:14:01.605692  5824 net.cpp:345] conv12 -> conv12
I0604 15:14:01.605700  5824 net.cpp:116] Setting up conv12
I0604 15:14:01.608561  5824 net.cpp:123] Top shape: 100 128 8 8 (819200)
I0604 15:14:01.608573  5824 net.cpp:154] With 92288 trainable parameters
I0604 15:14:01.608577  5824 layer_factory.hpp:74] Creating layer relu12
I0604 15:14:01.608582  5824 net.cpp:87] Creating Layer relu12
I0604 15:14:01.608584  5824 net.cpp:387] relu12 <- conv12
I0604 15:14:01.608589  5824 net.cpp:334] relu12 -> conv12 (in-place)
I0604 15:14:01.608594  5824 net.cpp:116] Setting up relu12
I0604 15:14:01.608654  5824 net.cpp:123] Top shape: 100 128 8 8 (819200)
I0604 15:14:01.608664  5824 net.cpp:154] With 0 trainable parameters
I0604 15:14:01.608669  5824 layer_factory.hpp:74] Creating layer conv13
I0604 15:14:01.608678  5824 net.cpp:87] Creating Layer conv13
I0604 15:14:01.608685  5824 net.cpp:387] conv13 <- conv12
I0604 15:14:01.608695  5824 net.cpp:345] conv13 -> conv13
I0604 15:14:01.608702  5824 net.cpp:116] Setting up conv13
I0604 15:14:01.615723  5824 net.cpp:123] Top shape: 100 128 8 8 (819200)
I0604 15:14:01.615737  5824 net.cpp:154] With 295168 trainable parameters
I0604 15:14:01.615741  5824 layer_factory.hpp:74] Creating layer conv14
I0604 15:14:01.615751  5824 net.cpp:87] Creating Layer conv14
I0604 15:14:01.615756  5824 net.cpp:387] conv14 <- conv13
I0604 15:14:01.615761  5824 net.cpp:345] conv14 -> conv14
I0604 15:14:01.615767  5824 net.cpp:116] Setting up conv14
I0604 15:14:01.622170  5824 net.cpp:123] Top shape: 100 128 8 8 (819200)
I0604 15:14:01.622182  5824 net.cpp:154] With 295168 trainable parameters
I0604 15:14:01.622185  5824 layer_factory.hpp:74] Creating layer conv15
I0604 15:14:01.622194  5824 net.cpp:87] Creating Layer conv15
I0604 15:14:01.622197  5824 net.cpp:387] conv15 <- conv14
I0604 15:14:01.622202  5824 net.cpp:345] conv15 -> conv15
I0604 15:14:01.622208  5824 net.cpp:116] Setting up conv15
I0604 15:14:01.628722  5824 net.cpp:123] Top shape: 100 128 8 8 (819200)
I0604 15:14:01.628734  5824 net.cpp:154] With 295168 trainable parameters
I0604 15:14:01.628737  5824 layer_factory.hpp:74] Creating layer conv16
I0604 15:14:01.628744  5824 net.cpp:87] Creating Layer conv16
I0604 15:14:01.628748  5824 net.cpp:387] conv16 <- conv15
I0604 15:14:01.628753  5824 net.cpp:345] conv16 -> conv16
I0604 15:14:01.628758  5824 net.cpp:116] Setting up conv16
I0604 15:14:01.635184  5824 net.cpp:123] Top shape: 100 128 8 8 (819200)
I0604 15:14:01.635196  5824 net.cpp:154] With 295168 trainable parameters
I0604 15:14:01.635200  5824 layer_factory.hpp:74] Creating layer conv17
I0604 15:14:01.635208  5824 net.cpp:87] Creating Layer conv17
I0604 15:14:01.635212  5824 net.cpp:387] conv17 <- conv16
I0604 15:14:01.635218  5824 net.cpp:345] conv17 -> conv17
I0604 15:14:01.635224  5824 net.cpp:116] Setting up conv17
I0604 15:14:01.642432  5824 net.cpp:123] Top shape: 100 128 8 8 (819200)
I0604 15:14:01.642449  5824 net.cpp:154] With 295168 trainable parameters
I0604 15:14:01.642454  5824 layer_factory.hpp:74] Creating layer conv18
I0604 15:14:01.642463  5824 net.cpp:87] Creating Layer conv18
I0604 15:14:01.642472  5824 net.cpp:387] conv18 <- conv17
I0604 15:14:01.642485  5824 net.cpp:345] conv18 -> conv18
I0604 15:14:01.642493  5824 net.cpp:116] Setting up conv18
I0604 15:14:01.642982  5824 net.cpp:123] Top shape: 100 100 8 8 (640000)
I0604 15:14:01.642989  5824 net.cpp:154] With 12900 trainable parameters
I0604 15:14:01.642993  5824 layer_factory.hpp:74] Creating layer relu
I0604 15:14:01.642998  5824 net.cpp:87] Creating Layer relu
I0604 15:14:01.643002  5824 net.cpp:387] relu <- conv18
I0604 15:14:01.643007  5824 net.cpp:334] relu -> conv18 (in-place)
I0604 15:14:01.643012  5824 net.cpp:116] Setting up relu
I0604 15:14:01.643059  5824 net.cpp:123] Top shape: 100 100 8 8 (640000)
I0604 15:14:01.643062  5824 net.cpp:154] With 0 trainable parameters
I0604 15:14:01.643065  5824 layer_factory.hpp:74] Creating layer pool3
I0604 15:14:01.643071  5824 net.cpp:87] Creating Layer pool3
I0604 15:14:01.643074  5824 net.cpp:387] pool3 <- conv18
I0604 15:14:01.643077  5824 net.cpp:345] pool3 -> pool3
I0604 15:14:01.643082  5824 net.cpp:116] Setting up pool3
I0604 15:14:01.643121  5824 net.cpp:123] Top shape: 100 100 1 1 (10000)
I0604 15:14:01.643124  5824 net.cpp:154] With 0 trainable parameters
I0604 15:14:01.643126  5824 layer_factory.hpp:74] Creating layer drop4
I0604 15:14:01.643131  5824 net.cpp:87] Creating Layer drop4
I0604 15:14:01.643134  5824 net.cpp:387] drop4 <- pool3
I0604 15:14:01.643138  5824 net.cpp:345] drop4 -> drop4
I0604 15:14:01.643142  5824 net.cpp:116] Setting up drop4
I0604 15:14:01.643148  5824 net.cpp:123] Top shape: 100 100 1 1 (10000)
I0604 15:14:01.643151  5824 net.cpp:154] With 0 trainable parameters
I0604 15:14:01.643154  5824 layer_factory.hpp:74] Creating layer ip2
I0604 15:14:01.643162  5824 net.cpp:87] Creating Layer ip2
I0604 15:14:01.643164  5824 net.cpp:387] ip2 <- drop4
I0604 15:14:01.643169  5824 net.cpp:345] ip2 -> ip2
I0604 15:14:01.643178  5824 net.cpp:116] Setting up ip2
I0604 15:14:01.643393  5824 net.cpp:123] Top shape: 100 100 (10000)
I0604 15:14:01.643405  5824 net.cpp:154] With 10100 trainable parameters
I0604 15:14:01.643409  5824 layer_factory.hpp:74] Creating layer loss
I0604 15:14:01.643414  5824 net.cpp:87] Creating Layer loss
I0604 15:14:01.643417  5824 net.cpp:387] loss <- ip2
I0604 15:14:01.643421  5824 net.cpp:387] loss <- label
I0604 15:14:01.643425  5824 net.cpp:345] loss -> loss
I0604 15:14:01.643430  5824 net.cpp:116] Setting up loss
…
I0604 15:14:01.644680  5824 net.cpp:297] The NetState did not contain stage 'test-on-train' specified by a rule in layer cifar
I0604 15:14:01.644991  5824 net.cpp:42] Initializing net from parameters: 
name: "CIFAR10_19layers"
state {
  phase: TEST
  stage: "test-on-test"
}
layer {
  name: "cifar"
  type: "Data"
  top: "data"
  top: "label"
  include {
    phase: TEST
    stage: "test-on-test"
  }
  transform_param {
    mirror: false
    mean_file: "/home/data/cifar10-gcn-leveldb-splits/mean.binaryproto"
  }
  data_param {
    source: "/home/data/cifar10-gcn-leveldb-splits/cifar10_test_leveldb"
    batch_size: 100
    backend: LEVELDB
  }
}
layer {
  name: "drop1"
  type: "Dropout"
  bottom: "data"
  top: "drop1"
  dropout_param {
    dropout_ratio: 0.2
  }
}
layer {
  name: "conv1"
  type: "Convolution"
  bottom: "drop1"
  top: "conv1"
  param {
    lr_mult: 1
    decay_mult: 1
  }
  param {
    lr_mult: 2
    decay_mult: 0
  }
  convolution_param {
    num_output: 32
    pad: 1
    kernel_size: 3
    stride: 1
    weight_filler {
      type: "gaussian"
      value: 0.05
    }
    bias_filler {
      type: "constant"
    }
  }
}
layer {
  name: "relu1"
  type: "ReLU"
  bottom: "conv1"
  top: "conv1"
}
layer {
  name: "conv2"
  type: "CuDNNHighway"
  bottom: "conv1"
  top: "conv2"
  param {
    lr_mult: 1
    decay_mult: 1
  }
  param {
    lr_mult: 1
    decay_mult: 1
  }
  param {
    lr_mult: 2
    decay_mult: 0
  }
  param {
    lr_mult: 2
    decay_mult: 0
  }
  highway_conv_param {
    num_output: 32
    pad: 1
    kernel_size: 3
    stride: 1
    weight_filler {
      type: "xavier"
    }
    bias_filler {
      type: "constant"
    }
    transform_bias_filler {
      type: "constant"
      value: -2
    }
  }
}
layer {
  name: "conv3"
  type: "CuDNNHighway"
  bottom: "conv2"
  top: "conv3"
  param {
    lr_mult: 1
    decay_mult: 1
  }
  param {
    lr_mult: 1
    decay_mult: 1
  }
  param {
    lr_mult: 2
    decay_mult: 0
  }
  param {
    lr_mult: 2
    decay_mult: 0
  }
  highway_conv_param {
    num_output: 32
    pad: 1
    kernel_size: 3
    stride: 1
    weight_filler {
      type: "xavier"
    }
    bias_filler {
      type: "constant"
    }
    transform_bias_filler {
      type: "constant"
      value: -2
    }
  }
}
layer {
  name: "conv4"
  type: "CuDNNHighway"
  bottom: "conv3"
  top: "conv4"
  param {
    lr_mult: 1
    decay_mult: 1
  }
  param {
    lr_mult: 1
    decay_mult: 1
  }
  param {
    lr_mult: 2
    decay_mult: 0
  }
  param {
    lr_mult: 2
    decay_mult: 0
  }
  highway_conv_param {
    num_output: 32
    pad: 1
    kernel_size: 3
    stride: 1
    weight_filler {
      type: "xavier"
    }
    bias_filler {
      type: "constant"
    }
    transform_bias_filler {
      type: "constant"
      value: -2
    }
  }
}
layer {
  name: "conv5"
  type: "CuDNNHighway"
  bottom: "conv4"
  top: "conv5"
  param {
    lr_mult: 1
    decay_mult: 1
  }
  param {
    lr_mult: 1
    decay_mult: 1
  }
  param {
    lr_mult: 2
    decay_mult: 0
  }
  param {
    lr_mult: 2
    decay_mult: 0
  }
  highway_conv_param {
    num_output: 32
    pad: 1
    kernel_size: 3
    stride: 1
    weight_filler {
      type: "xavier"
    }
    bias_filler {
      type: "constant"
    }
    transform_bias_filler {
      type: "constant"
      value: -2
    }
  }
}
layer {
  name: "pool1"
  type: "Pooling"
  bottom: "conv5"
  top: "pool1"
  pooling_param {
    pool: MAX
    kernel_size: 2
    stride: 2
  }
}
layer {
  name: "drop2"
  type: "Dropout"
  bottom: "pool1"
  top: "drop2"
  dropout_param {
    dropout_ratio: 0.2
  }
}
layer {
  name: "conv6"
  type: "Convolution"
  bottom: "drop2"
  top: "conv6"
  param {
    lr_mult: 1
    decay_mult: 1
  }
  param {
    lr_mult: 2
    decay_mult: 0
  }
  convolution_param {
    num_output: 80
    pad: 1
    kernel_size: 3
    stride: 1
    weight_filler {
      type: "xavier"
    }
    bias_filler {
      type: "constant"
    }
  }
}
layer {
  name: "relu6"
  type: "ReLU"
  bottom: "conv6"
  top: "conv6"
}
layer {
  name: "conv7"
  type: "CuDNNHighway"
  bottom: "conv6"
  top: "conv7"
  param {
    lr_mult: 1
    decay_mult: 1
  }
  param {
    lr_mult: 1
    decay_mult: 1
  }
  param {
    lr_mult: 2
    decay_mult: 0
  }
  param {
    lr_mult: 2
    decay_mult: 0
  }
  highway_conv_param {
    num_output: 80
    pad: 1
    kernel_size: 3
    stride: 1
    weight_filler {
      type: "xavier"
    }
    bias_filler {
      type: "constant"
    }
    transform_bias_filler {
      type: "constant"
      value: -2
    }
  }
}
layer {
  name: "conv8"
  type: "CuDNNHighway"
  bottom: "conv7"
  top: "conv8"
  param {
    lr_mult: 1
    decay_mult: 1
  }
  param {
    lr_mult: 1
    decay_mult: 1
  }
  param {
    lr_mult: 2
    decay_mult: 0
  }
  param {
    lr_mult: 2
    decay_mult: 0
  }
  highway_conv_param {
    num_output: 80
    pad: 1
    kernel_size: 3
    stride: 1
    weight_filler {
      type: "xavier"
    }
    bias_filler {
      type: "constant"
    }
    transform_bias_filler {
      type: "constant"
      value: -2
    }
  }
}
layer {
  name: "conv9"
  type: "CuDNNHighway"
  bottom: "conv8"
  top: "conv9"
  param {
    lr_mult: 1
    decay_mult: 1
  }
  param {
    lr_mult: 1
    decay_mult: 1
  }
  param {
    lr_mult: 2
    decay_mult: 0
  }
  param {
    lr_mult: 2
    decay_mult: 0
  }
  highway_conv_param {
    num_output: 80
    pad: 1
    kernel_size: 3
    stride: 1
    weight_filler {
      type: "xavier"
    }
    bias_filler {
      type: "constant"
    }
    transform_bias_filler {
      type: "constant"
      value: -2
    }
  }
}
layer {
  name: "conv10"
  type: "CuDNNHighway"
  bottom: "conv9"
  top: "conv10"
  param {
    lr_mult: 1
    decay_mult: 1
  }
  param {
    lr_mult: 1
    decay_mult: 1
  }
  param {
    lr_mult: 2
    decay_mult: 0
  }
  param {
    lr_mult: 2
    decay_mult: 0
  }
  highway_conv_param {
    num_output: 80
    pad: 1
    kernel_size: 3
    stride: 1
    weight_filler {
      type: "xavier"
    }
    bias_filler {
      type: "constant"
    }
    transform_bias_filler {
      type: "constant"
      value: -2
    }
  }
}
layer {
  name: "conv11"
  type: "CuDNNHighway"
  bottom: "conv10"
  top: "conv11"
  param {
    lr_mult: 1
    decay_mult: 1
  }
  param {
    lr_mult: 1
    decay_mult: 1
  }
  param {
    lr_mult: 2
    decay_mult: 0
  }
  param {
    lr_mult: 2
    decay_mult: 0
  }
  highway_conv_param {
    num_output: 80
    pad: 1
    kernel_size: 3
    stride: 1
    weight_filler {
      type: "xavier"
    }
    bias_filler {
      type: "constant"
    }
    transform_bias_filler {
      type: "constant"
      value: -2
    }
  }
}
layer {
  name: "pool2"
  type: "Pooling"
  bottom: "conv11"
  top: "pool2"
  pooling_param {
    pool: MAX
    kernel_size: 2
    stride: 2
  }
}
layer {
  name: "drop3"
  type: "Dropout"
  bottom: "pool2"
  top: "drop3"
  dropout_param {
    dropout_ratio: 0.2
  }
}
layer {
  name: "conv12"
  type: "Convolution"
  bottom: "drop3"
  top: "conv12"
  param {
    lr_mult: 1
    decay_mult: 1
  }
  param {
    lr_mult: 2
    decay_mult: 0
  }
  convolution_param {
    num_output: 128
    pad: 1
    kernel_size: 3
    stride: 1
    weight_filler {
      type: "xavier"
    }
    bias_filler {
      type: "constant"
    }
  }
}
layer {
  name: "relu12"
  type: "ReLU"
  bottom: "conv12"
  top: "conv12"
}
layer {
  name: "conv13"
  type: "CuDNNHighway"
  bottom: "conv12"
  top: "conv13"
  param {
    lr_mult: 1
    decay_mult: 1
  }
  param {
    lr_mult: 1
    decay_mult: 1
  }
  param {
    lr_mult: 2
    decay_mult: 0
  }
  param {
    lr_mult: 2
    decay_mult: 0
  }
  highway_conv_param {
    num_output: 128
    pad: 1
    kernel_size: 3
    stride: 1
    weight_filler {
      type: "xavier"
    }
    bias_filler {
      type: "constant"
    }
    transform_bias_filler {
      type: "constant"
      value: -2
    }
  }
}
layer {
  name: "conv14"
  type: "CuDNNHighway"
  bottom: "conv13"
  top: "conv14"
  param {
    lr_mult: 1
    decay_mult: 1
  }
  param {
    lr_mult: 1
    decay_mult: 1
  }
  param {
    lr_mult: 2
    decay_mult: 0
  }
  param {
    lr_mult: 2
    decay_mult: 0
  }
  highway_conv_param {
    num_output: 128
    pad: 1
    kernel_size: 3
    stride: 1
    weight_filler {
      type: "xavier"
    }
    bias_filler {
      type: "constant"
    }
    transform_bias_filler {
      type: "constant"
      value: -2
    }
  }
}
layer {
  name: "conv15"
  type: "CuDNNHighway"
  bottom: "conv14"
  top: "conv15"
  param {
    lr_mult: 1
    decay_mult: 1
  }
  param {
    lr_mult: 1
    decay_mult: 1
  }
  param {
    lr_mult: 2
    decay_mult: 0
  }
  param {
    lr_mult: 2
    decay_mult: 0
  }
  highway_conv_param {
    num_output: 128
    pad: 1
    kernel_size: 3
    stride: 1
    weight_filler {
      type: "xavier"
    }
    bias_filler {
      type: "constant"
    }
    transform_bias_filler {
      type: "constant"
      value: -2
    }
  }
}
layer {
  name: "conv16"
  type: "CuDNNHighway"
  bottom: "conv15"
  top: "conv16"
  param {
    lr_mult: 1
    decay_mult: 1
  }
  param {
    lr_mult: 1
    decay_mult: 1
  }
  param {
    lr_mult: 2
    decay_mult: 0
  }
  param {
    lr_mult: 2
    decay_mult: 0
  }
  highway_conv_param {
    num_output: 128
    pad: 1
    kernel_size: 3
    stride: 1
    weight_filler {
      type: "xavier"
    }
    bias_filler {
      type: "constant"
    }
    transform_bias_filler {
      type: "constant"
      value: -2
    }
  }
}
layer {
  name: "conv17"
  type: "CuDNNHighway"
  bottom: "conv16"
  top: "conv17"
  param {
    lr_mult: 1
    decay_mult: 1
  }
  param {
    lr_mult: 1
    decay_mult: 1
  }
  param {
    lr_mult: 2
    decay_mult: 0
  }
  param {
    lr_mult: 2
    decay_mult: 0
  }
  highway_conv_param {
    num_output: 128
    pad: 1
    kernel_size: 3
    stride: 1
    weight_filler {
      type: "xavier"
    }
    bias_filler {
      type: "constant"
    }
    transform_bias_filler {
      type: "constant"
      value: -2
    }
  }
}
layer {
  name: "conv18"
  type: "Convolution"
  bottom: "conv17"
  top: "conv18"
  param {
    lr_mult: 1
    decay_mult: 1
  }
  param {
    lr_mult: 2
    decay_mult: 0
  }
  convolution_param {
    num_output: 100
    pad: 0
    kernel_size: 1
    stride: 1
    weight_filler {
      type: "xavier"
    }
    bias_filler {
      type: "constant"
    }
  }
}
layer {
  name: "relu"
  type: "ReLU"
  bottom: "conv18"
  top: "conv18"
}
layer {
  name: "pool3"
  type: "Pooling"
  bottom: "conv18"
  top: "pool3"
  pooling_param {
    pool: AVE
    kernel_size: 8
    stride: 8
  }
}
layer {
  name: "drop4"
  type: "Dropout"
  bottom: "pool3"
  top: "drop4"
  dropout_param {
    dropout_ratio: 0.2
  }
}
layer {
  name: "ip2"
  type: "InnerProduct"
  bottom: "drop4"
  top: "ip2"
  param {
    lr_mult: 1
    decay_mult: 10
  }
  param {
    lr_mult: 2
    decay_mult: 0
  }
  inner_product_param {
    num_output: 100
    weight_filler {
      type: "gaussian"
      std: 0.05
    }
    bias_filler {
      type: "constant"
    }
  }
}
layer {
  name: "accuracy"
  type: "Accuracy"
  bottom: "ip2"
  bottom: "label"
  top: "accuracy"
  include {
    phase: TEST
  }
}
layer {
  name: "loss"
  type: "SoftmaxWithLoss"
  bottom: "ip2"
  bottom: "label"
  top: "loss"
}
I0604 15:14:01.645100  5824 layer_factory.hpp:74] Creating layer cifar
I0604 15:14:01.645108  5824 net.cpp:87] Creating Layer cifar
I0604 15:14:01.645112  5824 net.cpp:345] cifar -> data
I0604 15:14:01.645119  5824 net.cpp:345] cifar -> label
I0604 15:14:01.645124  5824 net.cpp:116] Setting up cifar
I0604 15:14:01.786824  5824 db.cpp:20] Opened leveldb /home/data/cifar10-gcn-leveldb-splits/cifar10_test_leveldb
I0604 15:14:01.786941  5824 data_layer.cpp:67] output data size: 100,3,32,32
I0604 15:14:01.786949  5824 data_transformer.cpp:22] Loading mean file from: /home/data/cifar10-gcn-leveldb-splits/mean.binaryproto
I0604 15:14:01.787261  5824 net.cpp:123] Top shape: 100 3 32 32 (307200)
I0604 15:14:01.787268  5824 net.cpp:123] Top shape: 100 (100)
I0604 15:14:01.787272  5824 net.cpp:154] With 0 trainable parameters
I0604 15:14:01.787276  5824 layer_factory.hpp:74] Creating layer label_cifar_1_split
I0604 15:14:01.787282  5824 net.cpp:87] Creating Layer label_cifar_1_split
I0604 15:14:01.787286  5824 net.cpp:387] label_cifar_1_split <- label
I0604 15:14:01.787292  5824 net.cpp:345] label_cifar_1_split -> label_cifar_1_split_0
I0604 15:14:01.787299  5824 net.cpp:345] label_cifar_1_split -> label_cifar_1_split_1
I0604 15:14:01.787304  5824 net.cpp:116] Setting up label_cifar_1_split
I0604 15:14:01.787309  5824 net.cpp:123] Top shape: 100 (100)
I0604 15:14:01.787312  5824 net.cpp:123] Top shape: 100 (100)
I0604 15:14:01.787314  5824 net.cpp:154] With 0 trainable parameters
I0604 15:14:01.787317  5824 layer_factory.hpp:74] Creating layer drop1
I0604 15:14:01.787322  5824 net.cpp:87] Creating Layer drop1
I0604 15:14:01.787325  5824 net.cpp:387] drop1 <- data
I0604 15:14:01.787329  5824 net.cpp:345] drop1 -> drop1
I0604 15:14:01.787334  5824 net.cpp:116] Setting up drop1
I0604 15:14:01.787340  5824 net.cpp:123] Top shape: 100 3 32 32 (307200)
I0604 15:14:01.787343  5824 net.cpp:154] With 0 trainable parameters
I0604 15:14:01.787345  5824 layer_factory.hpp:74] Creating layer conv1
I0604 15:14:01.787351  5824 net.cpp:87] Creating Layer conv1
I0604 15:14:01.787354  5824 net.cpp:387] conv1 <- drop1
I0604 15:14:01.787358  5824 net.cpp:345] conv1 -> conv1
I0604 15:14:01.787364  5824 net.cpp:116] Setting up conv1
I0604 15:14:01.787708  5824 net.cpp:123] Top shape: 100 32 32 32 (3276800)
I0604 15:14:01.787719  5824 net.cpp:154] With 896 trainable parameters
I0604 15:14:01.787722  5824 layer_factory.hpp:74] Creating layer relu1
I0604 15:14:01.787729  5824 net.cpp:87] Creating Layer relu1
I0604 15:14:01.787731  5824 net.cpp:387] relu1 <- conv1
I0604 15:14:01.787735  5824 net.cpp:334] relu1 -> conv1 (in-place)
I0604 15:14:01.787741  5824 net.cpp:116] Setting up relu1
I0604 15:14:01.787786  5824 net.cpp:123] Top shape: 100 32 32 32 (3276800)
I0604 15:14:01.787791  5824 net.cpp:154] With 0 trainable parameters
I0604 15:14:01.787793  5824 layer_factory.hpp:74] Creating layer conv2
I0604 15:14:01.787801  5824 net.cpp:87] Creating Layer conv2
I0604 15:14:01.787803  5824 net.cpp:387] conv2 <- conv1
I0604 15:14:01.787808  5824 net.cpp:345] conv2 -> conv2
I0604 15:14:01.787813  5824 net.cpp:116] Setting up conv2
I0604 15:14:01.788615  5824 net.cpp:123] Top shape: 100 32 32 32 (3276800)
I0604 15:14:01.788626  5824 net.cpp:154] With 18496 trainable parameters
I0604 15:14:01.788635  5824 layer_factory.hpp:74] Creating layer conv3
I0604 15:14:01.788650  5824 net.cpp:87] Creating Layer conv3
I0604 15:14:01.788652  5824 net.cpp:387] conv3 <- conv2
I0604 15:14:01.788657  5824 net.cpp:345] conv3 -> conv3
I0604 15:14:01.788663  5824 net.cpp:116] Setting up conv3
I0604 15:14:01.789454  5824 net.cpp:123] Top shape: 100 32 32 32 (3276800)
I0604 15:14:01.789466  5824 net.cpp:154] With 18496 trainable parameters
I0604 15:14:01.789470  5824 layer_factory.hpp:74] Creating layer conv4
I0604 15:14:01.789476  5824 net.cpp:87] Creating Layer conv4
I0604 15:14:01.789479  5824 net.cpp:387] conv4 <- conv3
I0604 15:14:01.789484  5824 net.cpp:345] conv4 -> conv4
I0604 15:14:01.789490  5824 net.cpp:116] Setting up conv4
I0604 15:14:01.790488  5824 net.cpp:123] Top shape: 100 32 32 32 (3276800)
I0604 15:14:01.790500  5824 net.cpp:154] With 18496 trainable parameters
I0604 15:14:01.790503  5824 layer_factory.hpp:74] Creating layer conv5
I0604 15:14:01.790511  5824 net.cpp:87] Creating Layer conv5
I0604 15:14:01.790514  5824 net.cpp:387] conv5 <- conv4
I0604 15:14:01.790520  5824 net.cpp:345] conv5 -> conv5
I0604 15:14:01.790526  5824 net.cpp:116] Setting up conv5
I0604 15:14:01.791329  5824 net.cpp:123] Top shape: 100 32 32 32 (3276800)
I0604 15:14:01.791342  5824 net.cpp:154] With 18496 trainable parameters
I0604 15:14:01.791344  5824 layer_factory.hpp:74] Creating layer pool1
I0604 15:14:01.791352  5824 net.cpp:87] Creating Layer pool1
I0604 15:14:01.791354  5824 net.cpp:387] pool1 <- conv5
I0604 15:14:01.791359  5824 net.cpp:345] pool1 -> pool1
I0604 15:14:01.791364  5824 net.cpp:116] Setting up pool1
I0604 15:14:01.791406  5824 net.cpp:123] Top shape: 100 32 16 16 (819200)
I0604 15:14:01.791410  5824 net.cpp:154] With 0 trainable parameters
I0604 15:14:01.791414  5824 layer_factory.hpp:74] Creating layer drop2
I0604 15:14:01.791419  5824 net.cpp:87] Creating Layer drop2
I0604 15:14:01.791422  5824 net.cpp:387] drop2 <- pool1
I0604 15:14:01.791425  5824 net.cpp:345] drop2 -> drop2
I0604 15:14:01.791430  5824 net.cpp:116] Setting up drop2
I0604 15:14:01.791436  5824 net.cpp:123] Top shape: 100 32 16 16 (819200)
I0604 15:14:01.791440  5824 net.cpp:154] With 0 trainable parameters
I0604 15:14:01.791441  5824 layer_factory.hpp:74] Creating layer conv6
I0604 15:14:01.791447  5824 net.cpp:87] Creating Layer conv6
I0604 15:14:01.791450  5824 net.cpp:387] conv6 <- drop2
I0604 15:14:01.791455  5824 net.cpp:345] conv6 -> conv6
I0604 15:14:01.791460  5824 net.cpp:116] Setting up conv6
I0604 15:14:01.792146  5824 net.cpp:123] Top shape: 100 80 16 16 (2048000)
I0604 15:14:01.792155  5824 net.cpp:154] With 23120 trainable parameters
I0604 15:14:01.792158  5824 layer_factory.hpp:74] Creating layer relu6
I0604 15:14:01.792163  5824 net.cpp:87] Creating Layer relu6
I0604 15:14:01.792166  5824 net.cpp:387] relu6 <- conv6
I0604 15:14:01.792171  5824 net.cpp:334] relu6 -> conv6 (in-place)
I0604 15:14:01.792176  5824 net.cpp:116] Setting up relu6
I0604 15:14:01.792214  5824 net.cpp:123] Top shape: 100 80 16 16 (2048000)
I0604 15:14:01.792217  5824 net.cpp:154] With 0 trainable parameters
I0604 15:14:01.792220  5824 layer_factory.hpp:74] Creating layer conv7
I0604 15:14:01.792227  5824 net.cpp:87] Creating Layer conv7
I0604 15:14:01.792230  5824 net.cpp:387] conv7 <- conv6
I0604 15:14:01.792234  5824 net.cpp:345] conv7 -> conv7
I0604 15:14:01.792239  5824 net.cpp:116] Setting up conv7
I0604 15:14:01.795063  5824 net.cpp:123] Top shape: 100 80 16 16 (2048000)
I0604 15:14:01.795078  5824 net.cpp:154] With 115360 trainable parameters
I0604 15:14:01.795080  5824 layer_factory.hpp:74] Creating layer conv8
I0604 15:14:01.795089  5824 net.cpp:87] Creating Layer conv8
I0604 15:14:01.795094  5824 net.cpp:387] conv8 <- conv7
I0604 15:14:01.795099  5824 net.cpp:345] conv8 -> conv8
I0604 15:14:01.795104  5824 net.cpp:116] Setting up conv8
I0604 15:14:01.797879  5824 net.cpp:123] Top shape: 100 80 16 16 (2048000)
I0604 15:14:01.797890  5824 net.cpp:154] With 115360 trainable parameters
I0604 15:14:01.797894  5824 layer_factory.hpp:74] Creating layer conv9
I0604 15:14:01.797907  5824 net.cpp:87] Creating Layer conv9
I0604 15:14:01.797919  5824 net.cpp:387] conv9 <- conv8
I0604 15:14:01.797925  5824 net.cpp:345] conv9 -> conv9
I0604 15:14:01.797931  5824 net.cpp:116] Setting up conv9
I0604 15:14:01.800688  5824 net.cpp:123] Top shape: 100 80 16 16 (2048000)
I0604 15:14:01.800699  5824 net.cpp:154] With 115360 trainable parameters
I0604 15:14:01.800703  5824 layer_factory.hpp:74] Creating layer conv10
I0604 15:14:01.800712  5824 net.cpp:87] Creating Layer conv10
I0604 15:14:01.800715  5824 net.cpp:387] conv10 <- conv9
I0604 15:14:01.800721  5824 net.cpp:345] conv10 -> conv10
I0604 15:14:01.800729  5824 net.cpp:116] Setting up conv10
I0604 15:14:01.803494  5824 net.cpp:123] Top shape: 100 80 16 16 (2048000)
I0604 15:14:01.803508  5824 net.cpp:154] With 115360 trainable parameters
I0604 15:14:01.803511  5824 layer_factory.hpp:74] Creating layer conv11
I0604 15:14:01.803517  5824 net.cpp:87] Creating Layer conv11
I0604 15:14:01.803521  5824 net.cpp:387] conv11 <- conv10
I0604 15:14:01.803527  5824 net.cpp:345] conv11 -> conv11
I0604 15:14:01.803534  5824 net.cpp:116] Setting up conv11
I0604 15:14:01.806282  5824 net.cpp:123] Top shape: 100 80 16 16 (2048000)
I0604 15:14:01.806293  5824 net.cpp:154] With 115360 trainable parameters
I0604 15:14:01.806296  5824 layer_factory.hpp:74] Creating layer pool2
I0604 15:14:01.806303  5824 net.cpp:87] Creating Layer pool2
I0604 15:14:01.806306  5824 net.cpp:387] pool2 <- conv11
I0604 15:14:01.806311  5824 net.cpp:345] pool2 -> pool2
I0604 15:14:01.806316  5824 net.cpp:116] Setting up pool2
I0604 15:14:01.806452  5824 net.cpp:123] Top shape: 100 80 8 8 (512000)
I0604 15:14:01.806459  5824 net.cpp:154] With 0 trainable parameters
I0604 15:14:01.806463  5824 layer_factory.hpp:74] Creating layer drop3
I0604 15:14:01.806468  5824 net.cpp:87] Creating Layer drop3
I0604 15:14:01.806470  5824 net.cpp:387] drop3 <- pool2
I0604 15:14:01.806474  5824 net.cpp:345] drop3 -> drop3
I0604 15:14:01.806479  5824 net.cpp:116] Setting up drop3
I0604 15:14:01.806484  5824 net.cpp:123] Top shape: 100 80 8 8 (512000)
I0604 15:14:01.806488  5824 net.cpp:154] With 0 trainable parameters
I0604 15:14:01.806489  5824 layer_factory.hpp:74] Creating layer conv12
I0604 15:14:01.806495  5824 net.cpp:87] Creating Layer conv12
I0604 15:14:01.806499  5824 net.cpp:387] conv12 <- drop3
I0604 15:14:01.806504  5824 net.cpp:345] conv12 -> conv12
I0604 15:14:01.806509  5824 net.cpp:116] Setting up conv12
I0604 15:14:01.808600  5824 net.cpp:123] Top shape: 100 128 8 8 (819200)
I0604 15:14:01.808609  5824 net.cpp:154] With 92288 trainable parameters
I0604 15:14:01.808612  5824 layer_factory.hpp:74] Creating layer relu12
I0604 15:14:01.808619  5824 net.cpp:87] Creating Layer relu12
I0604 15:14:01.808621  5824 net.cpp:387] relu12 <- conv12
I0604 15:14:01.808625  5824 net.cpp:334] relu12 -> conv12 (in-place)
I0604 15:14:01.808630  5824 net.cpp:116] Setting up relu12
I0604 15:14:01.808668  5824 net.cpp:123] Top shape: 100 128 8 8 (819200)
I0604 15:14:01.808672  5824 net.cpp:154] With 0 trainable parameters
I0604 15:14:01.808675  5824 layer_factory.hpp:74] Creating layer conv13
I0604 15:14:01.808681  5824 net.cpp:87] Creating Layer conv13
I0604 15:14:01.808684  5824 net.cpp:387] conv13 <- conv12
I0604 15:14:01.808688  5824 net.cpp:345] conv13 -> conv13
I0604 15:14:01.808693  5824 net.cpp:116] Setting up conv13
I0604 15:14:01.815088  5824 net.cpp:123] Top shape: 100 128 8 8 (819200)
I0604 15:14:01.815100  5824 net.cpp:154] With 295168 trainable parameters
I0604 15:14:01.815104  5824 layer_factory.hpp:74] Creating layer conv14
I0604 15:14:01.815111  5824 net.cpp:87] Creating Layer conv14
I0604 15:14:01.815114  5824 net.cpp:387] conv14 <- conv13
I0604 15:14:01.815120  5824 net.cpp:345] conv14 -> conv14
I0604 15:14:01.815126  5824 net.cpp:116] Setting up conv14
I0604 15:14:01.821526  5824 net.cpp:123] Top shape: 100 128 8 8 (819200)
I0604 15:14:01.821537  5824 net.cpp:154] With 295168 trainable parameters
I0604 15:14:01.821540  5824 layer_factory.hpp:74] Creating layer conv15
I0604 15:14:01.821554  5824 net.cpp:87] Creating Layer conv15
I0604 15:14:01.821566  5824 net.cpp:387] conv15 <- conv14
I0604 15:14:01.821571  5824 net.cpp:345] conv15 -> conv15
I0604 15:14:01.821578  5824 net.cpp:116] Setting up conv15
I0604 15:14:01.827991  5824 net.cpp:123] Top shape: 100 128 8 8 (819200)
I0604 15:14:01.828003  5824 net.cpp:154] With 295168 trainable parameters
I0604 15:14:01.828006  5824 layer_factory.hpp:74] Creating layer conv16
I0604 15:14:01.828014  5824 net.cpp:87] Creating Layer conv16
I0604 15:14:01.828017  5824 net.cpp:387] conv16 <- conv15
I0604 15:14:01.828022  5824 net.cpp:345] conv16 -> conv16
I0604 15:14:01.828028  5824 net.cpp:116] Setting up conv16
I0604 15:14:01.834589  5824 net.cpp:123] Top shape: 100 128 8 8 (819200)
I0604 15:14:01.834604  5824 net.cpp:154] With 295168 trainable parameters
I0604 15:14:01.834607  5824 layer_factory.hpp:74] Creating layer conv17
I0604 15:14:01.834615  5824 net.cpp:87] Creating Layer conv17
I0604 15:14:01.834619  5824 net.cpp:387] conv17 <- conv16
I0604 15:14:01.834626  5824 net.cpp:345] conv17 -> conv17
I0604 15:14:01.834633  5824 net.cpp:116] Setting up conv17
I0604 15:14:01.841119  5824 net.cpp:123] Top shape: 100 128 8 8 (819200)
I0604 15:14:01.841130  5824 net.cpp:154] With 295168 trainable parameters
I0604 15:14:01.841133  5824 layer_factory.hpp:74] Creating layer conv18
I0604 15:14:01.841143  5824 net.cpp:87] Creating Layer conv18
I0604 15:14:01.841146  5824 net.cpp:387] conv18 <- conv17
I0604 15:14:01.841152  5824 net.cpp:345] conv18 -> conv18
I0604 15:14:01.841157  5824 net.cpp:116] Setting up conv18
I0604 15:14:01.841729  5824 net.cpp:123] Top shape: 100 100 8 8 (640000)
I0604 15:14:01.841738  5824 net.cpp:154] With 12900 trainable parameters
I0604 15:14:01.841742  5824 layer_factory.hpp:74] Creating layer relu
I0604 15:14:01.841747  5824 net.cpp:87] Creating Layer relu
I0604 15:14:01.841750  5824 net.cpp:387] relu <- conv18
I0604 15:14:01.841754  5824 net.cpp:334] relu -> conv18 (in-place)
I0604 15:14:01.841759  5824 net.cpp:116] Setting up relu
I0604 15:14:01.841822  5824 net.cpp:123] Top shape: 100 100 8 8 (640000)
I0604 15:14:01.841826  5824 net.cpp:154] With 0 trainable parameters
I0604 15:14:01.841830  5824 layer_factory.hpp:74] Creating layer pool3
I0604 15:14:01.841835  5824 net.cpp:87] Creating Layer pool3
I0604 15:14:01.841837  5824 net.cpp:387] pool3 <- conv18
I0604 15:14:01.841841  5824 net.cpp:345] pool3 -> pool3
I0604 15:14:01.841846  5824 net.cpp:116] Setting up pool3
I0604 15:14:01.841977  5824 net.cpp:123] Top shape: 100 100 1 1 (10000)
I0604 15:14:01.841984  5824 net.cpp:154] With 0 trainable parameters
I0604 15:14:01.841986  5824 layer_factory.hpp:74] Creating layer drop4
I0604 15:14:01.841991  5824 net.cpp:87] Creating Layer drop4
I0604 15:14:01.841995  5824 net.cpp:387] drop4 <- pool3
I0604 15:14:01.842000  5824 net.cpp:345] drop4 -> drop4
I0604 15:14:01.842005  5824 net.cpp:116] Setting up drop4
I0604 15:14:01.842010  5824 net.cpp:123] Top shape: 100 100 1 1 (10000)
I0604 15:14:01.842012  5824 net.cpp:154] With 0 trainable parameters
I0604 15:14:01.842015  5824 layer_factory.hpp:74] Creating layer ip2
I0604 15:14:01.842020  5824 net.cpp:87] Creating Layer ip2
I0604 15:14:01.842023  5824 net.cpp:387] ip2 <- drop4
I0604 15:14:01.842027  5824 net.cpp:345] ip2 -> ip2
I0604 15:14:01.842032  5824 net.cpp:116] Setting up ip2
I0604 15:14:01.842243  5824 net.cpp:123] Top shape: 100 100 (10000)
I0604 15:14:01.842258  5824 net.cpp:154] With 10100 trainable parameters
I0604 15:14:01.842262  5824 layer_factory.hpp:74] Creating layer ip2_ip2_0_split
I0604 15:14:01.842268  5824 net.cpp:87] Creating Layer ip2_ip2_0_split
I0604 15:14:01.842272  5824 net.cpp:387] ip2_ip2_0_split <- ip2
I0604 15:14:01.842275  5824 net.cpp:345] ip2_ip2_0_split -> ip2_ip2_0_split_0
I0604 15:14:01.842279  5824 net.cpp:345] ip2_ip2_0_split -> ip2_ip2_0_split_1
I0604 15:14:01.842284  5824 net.cpp:116] Setting up ip2_ip2_0_split
I0604 15:14:01.842288  5824 net.cpp:123] Top shape: 100 100 (10000)
I0604 15:14:01.842291  5824 net.cpp:123] Top shape: 100 100 (10000)
I0604 15:14:01.842300  5824 net.cpp:154] With 0 trainable parameters
I0604 15:14:01.842310  5824 layer_factory.hpp:74] Creating layer accuracy
I0604 15:14:01.842316  5824 net.cpp:87] Creating Layer accuracy
I0604 15:14:01.842319  5824 net.cpp:387] accuracy <- ip2_ip2_0_split_0
I0604 15:14:01.842324  5824 net.cpp:387] accuracy <- label_cifar_1_split_0
I0604 15:14:01.842327  5824 net.cpp:345] accuracy -> accuracy
…
