…
I0605 18:58:13.523120 12321 net.cpp:264] The NetState phase (0) differed from the phase (1) specified by a rule in layer mnist
I0605 18:58:13.523133 12321 net.cpp:264] The NetState phase (0) differed from the phase (1) specified by a rule in layer accuracy
I0605 18:58:13.523315 12321 net.cpp:42] Initializing net from parameters: 
name: "MNIST_Highway"
state {
  phase: TRAIN
}
layer {
  name: "mnist"
  type: "Data"
  top: "data"
  top: "label"
  include {
    phase: TRAIN
  }
  transform_param {
    scale: 0.00390625
  }
  data_param {
    source: "/home/data/mnist/mnist_train_lmdb"
    batch_size: 100
    backend: LMDB
  }
}
layer {
  name: "drop1"
  type: "Dropout"
  bottom: "data"
  top: "drop1"
  dropout_param {
    dropout_ratio: 0.2
  }
}
layer {
  name: "s1-conv1"
  type: "Convolution"
  bottom: "drop1"
  top: "s1-conv1"
  param {
    lr_mult: 1
    decay_mult: 1
  }
  param {
    lr_mult: 2
    decay_mult: 0
  }
  convolution_param {
    num_output: 32
    pad: 0
    kernel_size: 5
    stride: 1
    weight_filler {
      type: "xavier"
    }
    bias_filler {
      type: "constant"
    }
  }
}
layer {
  name: "relu"
  type: "ReLU"
  bottom: "s1-conv1"
  top: "s1-conv1"
}
layer {
  name: "s1-conv2"
  type: "CuDNNHighway"
  bottom: "s1-conv1"
  top: "s1-conv2"
  param {
    lr_mult: 1
    decay_mult: 1
  }
  param {
    lr_mult: 1
    decay_mult: 1
  }
  param {
    lr_mult: 2
    decay_mult: 0
  }
  param {
    lr_mult: 2
    decay_mult: 0
  }
  highway_conv_param {
    num_output: 32
    pad: 1
    kernel_size: 3
    stride: 1
    weight_filler {
      type: "xavier"
    }
    bias_filler {
      type: "constant"
    }
    transform_bias_filler {
      type: "constant"
      value: -1
    }
  }
}
layer {
  name: "s1-conv3"
  type: "CuDNNHighway"
  bottom: "s1-conv2"
  top: "s1-conv3"
  param {
    lr_mult: 1
    decay_mult: 1
  }
  param {
    lr_mult: 1
    decay_mult: 1
  }
  param {
    lr_mult: 2
    decay_mult: 0
  }
  param {
    lr_mult: 2
    decay_mult: 0
  }
  highway_conv_param {
    num_output: 32
    pad: 1
    kernel_size: 3
    stride: 1
    weight_filler {
      type: "xavier"
    }
    bias_filler {
      type: "constant"
    }
    transform_bias_filler {
      type: "constant"
      value: -1
    }
  }
}
layer {
  name: "pool1"
  type: "Pooling"
  bottom: "s1-conv3"
  top: "pool1"
  pooling_param {
    pool: MAX
    kernel_size: 3
    stride: 2
    pad: 0
  }
}
layer {
  name: "drop2"
  type: "Dropout"
  bottom: "pool1"
  top: "drop2"
  dropout_param {
    dropout_ratio: 0.3
  }
}
layer {
  name: "s2-conv1"
  type: "CuDNNHighway"
  bottom: "drop2"
  top: "s2-conv1"
  param {
    lr_mult: 1
    decay_mult: 1
  }
  param {
    lr_mult: 1
    decay_mult: 1
  }
  param {
    lr_mult: 2
    decay_mult: 0
  }
  param {
    lr_mult: 2
    decay_mult: 0
  }
  highway_conv_param {
    num_output: 32
    pad: 1
    kernel_size: 3
    stride: 1
    weight_filler {
      type: "xavier"
    }
    bias_filler {
      type: "constant"
    }
    transform_bias_filler {
      type: "constant"
      value: -1
    }
  }
}
layer {
  name: "s2-conv2"
  type: "CuDNNHighway"
  bottom: "s2-conv1"
  top: "s2-conv2"
  param {
    lr_mult: 1
    decay_mult: 1
  }
  param {
    lr_mult: 1
    decay_mult: 1
  }
  param {
    lr_mult: 2
    decay_mult: 0
  }
  param {
    lr_mult: 2
    decay_mult: 0
  }
  highway_conv_param {
    num_output: 32
    pad: 1
    kernel_size: 3
    stride: 1
    weight_filler {
      type: "xavier"
    }
    bias_filler {
      type: "constant"
    }
    transform_bias_filler {
      type: "constant"
      value: -1
    }
  }
}
layer {
  name: "s2-conv3"
  type: "CuDNNHighway"
  bottom: "s2-conv2"
  top: "s2-conv3"
  param {
    lr_mult: 1
    decay_mult: 1
  }
  param {
    lr_mult: 1
    decay_mult: 1
  }
  param {
    lr_mult: 2
    decay_mult: 0
  }
  param {
    lr_mult: 2
    decay_mult: 0
  }
  highway_conv_param {
    num_output: 32
    pad: 1
    kernel_size: 3
    stride: 1
    weight_filler {
      type: "xavier"
    }
    bias_filler {
      type: "constant"
    }
    transform_bias_filler {
      type: "constant"
      value: -1
    }
  }
}
layer {
  name: "pool2"
  type: "Pooling"
  bottom: "s2-conv3"
  top: "pool2"
  pooling_param {
    pool: MAX
    kernel_size: 3
    stride: 2
    pad: 0
  }
}
layer {
  name: "drop3"
  type: "Dropout"
  bottom: "pool2"
  top: "drop3"
  dropout_param {
    dropout_ratio: 0.4
  }
}
layer {
  name: "s3-conv1"
  type: "CuDNNHighway"
  bottom: "drop3"
  top: "s3-conv1"
  param {
    lr_mult: 1
    decay_mult: 1
  }
  param {
    lr_mult: 1
    decay_mult: 1
  }
  param {
    lr_mult: 2
    decay_mult: 0
  }
  param {
    lr_mult: 2
    decay_mult: 0
  }
  highway_conv_param {
    num_output: 32
    pad: 1
    kernel_size: 3
    stride: 1
    weight_filler {
      type: "xavier"
    }
    bias_filler {
      type: "constant"
    }
    transform_bias_filler {
      type: "constant"
      value: -1
    }
  }
}
layer {
  name: "s3-conv2"
  type: "CuDNNHighway"
  bottom: "s3-conv1"
  top: "s3-conv2"
  param {
    lr_mult: 1
    decay_mult: 1
  }
  param {
    lr_mult: 1
    decay_mult: 1
  }
  param {
    lr_mult: 2
    decay_mult: 0
  }
  param {
    lr_mult: 2
    decay_mult: 0
  }
  highway_conv_param {
    num_output: 32
    pad: 1
    kernel_size: 3
    stride: 1
    weight_filler {
      type: "xavier"
    }
    bias_filler {
      type: "constant"
    }
    transform_bias_filler {
      type: "constant"
      value: -1
    }
  }
}
layer {
  name: "s3-conv3"
  type: "CuDNNHighway"
  bottom: "s3-conv2"
  top: "s3-conv3"
  param {
    lr_mult: 1
    decay_mult: 1
  }
  param {
    lr_mult: 1
    decay_mult: 1
  }
  param {
    lr_mult: 2
    decay_mult: 0
  }
  param {
    lr_mult: 2
    decay_mult: 0
  }
  highway_conv_param {
    num_output: 32
    pad: 1
    kernel_size: 3
    stride: 1
    weight_filler {
      type: "xavier"
    }
    bias_filler {
      type: "constant"
    }
    transform_bias_filler {
      type: "constant"
      value: -1
    }
  }
}
layer {
  name: "pool3"
  type: "Pooling"
  bottom: "s3-conv3"
  top: "pool3"
  pooling_param {
    pool: MAX
    kernel_size: 2
    stride: 2
  }
}
layer {
  name: "drop4"
  type: "Dropout"
  bottom: "pool3"
  top: "drop4"
  dropout_param {
    dropout_ratio: 0.5
  }
}
layer {
  name: "ip2"
  type: "InnerProduct"
  bottom: "drop4"
  top: "ip2"
  param {
    lr_mult: 1
    decay_mult: 10
  }
  param {
    lr_mult: 2
    decay_mult: 0
  }
  inner_product_param {
    num_output: 10
    weight_filler {
      type: "gaussian"
      std: 0.1
    }
    bias_filler {
      type: "constant"
    }
  }
}
layer {
  name: "loss"
  type: "SoftmaxWithLoss"
  bottom: "ip2"
  bottom: "label"
  top: "loss"
}
I0605 18:58:13.523398 12321 layer_factory.hpp:74] Creating layer mnist
I0605 18:58:13.523416 12321 net.cpp:87] Creating Layer mnist
I0605 18:58:13.523421 12321 net.cpp:345] mnist -> data
I0605 18:58:13.523440 12321 net.cpp:345] mnist -> label
I0605 18:58:13.523448 12321 net.cpp:116] Setting up mnist
I0605 18:58:13.523499 12321 db.cpp:34] Opened lmdb /home/data/mnist/mnist_train_lmdb
I0605 18:58:13.523527 12321 data_layer.cpp:67] output data size: 100,1,28,28
I0605 18:58:13.523634 12321 net.cpp:123] Top shape: 100 1 28 28 (78400)
I0605 18:58:13.523644 12321 net.cpp:123] Top shape: 100 (100)
I0605 18:58:13.523650 12321 net.cpp:154] With 0 trainable parameters
I0605 18:58:13.523654 12321 layer_factory.hpp:74] Creating layer drop1
I0605 18:58:13.523663 12321 net.cpp:87] Creating Layer drop1
I0605 18:58:13.523666 12321 net.cpp:387] drop1 <- data
I0605 18:58:13.523674 12321 net.cpp:345] drop1 -> drop1
I0605 18:58:13.523681 12321 net.cpp:116] Setting up drop1
I0605 18:58:13.523691 12321 net.cpp:123] Top shape: 100 1 28 28 (78400)
I0605 18:58:13.523694 12321 net.cpp:154] With 0 trainable parameters
I0605 18:58:13.523697 12321 layer_factory.hpp:74] Creating layer s1-conv1
I0605 18:58:13.523705 12321 net.cpp:87] Creating Layer s1-conv1
I0605 18:58:13.523708 12321 net.cpp:387] s1-conv1 <- drop1
I0605 18:58:13.523713 12321 net.cpp:345] s1-conv1 -> s1-conv1
I0605 18:58:13.523720 12321 net.cpp:116] Setting up s1-conv1
I0605 18:58:13.556006 12321 net.cpp:123] Top shape: 100 32 24 24 (1843200)
I0605 18:58:13.556041 12321 net.cpp:154] With 832 trainable parameters
I0605 18:58:13.556047 12321 layer_factory.hpp:74] Creating layer relu
I0605 18:58:13.556056 12321 net.cpp:87] Creating Layer relu
I0605 18:58:13.556061 12321 net.cpp:387] relu <- s1-conv1
I0605 18:58:13.556066 12321 net.cpp:334] relu -> s1-conv1 (in-place)
I0605 18:58:13.556076 12321 net.cpp:116] Setting up relu
I0605 18:58:13.556118 12321 net.cpp:123] Top shape: 100 32 24 24 (1843200)
I0605 18:58:13.556123 12321 net.cpp:154] With 0 trainable parameters
I0605 18:58:13.556125 12321 layer_factory.hpp:74] Creating layer s1-conv2
I0605 18:58:13.556138 12321 net.cpp:87] Creating Layer s1-conv2
I0605 18:58:13.556141 12321 net.cpp:387] s1-conv2 <- s1-conv1
I0605 18:58:13.556145 12321 net.cpp:345] s1-conv2 -> s1-conv2
I0605 18:58:13.556154 12321 net.cpp:116] Setting up s1-conv2
I0605 18:58:13.556921 12321 net.cpp:123] Top shape: 100 32 24 24 (1843200)
I0605 18:58:13.556932 12321 net.cpp:154] With 18496 trainable parameters
I0605 18:58:13.556936 12321 layer_factory.hpp:74] Creating layer s1-conv3
I0605 18:58:13.556941 12321 net.cpp:87] Creating Layer s1-conv3
I0605 18:58:13.556944 12321 net.cpp:387] s1-conv3 <- s1-conv2
I0605 18:58:13.556949 12321 net.cpp:345] s1-conv3 -> s1-conv3
I0605 18:58:13.556954 12321 net.cpp:116] Setting up s1-conv3
I0605 18:58:13.557723 12321 net.cpp:123] Top shape: 100 32 24 24 (1843200)
I0605 18:58:13.557734 12321 net.cpp:154] With 18496 trainable parameters
I0605 18:58:13.557736 12321 layer_factory.hpp:74] Creating layer pool1
I0605 18:58:13.557744 12321 net.cpp:87] Creating Layer pool1
I0605 18:58:13.557747 12321 net.cpp:387] pool1 <- s1-conv3
I0605 18:58:13.557751 12321 net.cpp:345] pool1 -> pool1
I0605 18:58:13.557756 12321 net.cpp:116] Setting up pool1
I0605 18:58:13.557806 12321 net.cpp:123] Top shape: 100 32 12 12 (460800)
I0605 18:58:13.557811 12321 net.cpp:154] With 0 trainable parameters
I0605 18:58:13.557814 12321 layer_factory.hpp:74] Creating layer drop2
I0605 18:58:13.557819 12321 net.cpp:87] Creating Layer drop2
I0605 18:58:13.557822 12321 net.cpp:387] drop2 <- pool1
I0605 18:58:13.557826 12321 net.cpp:345] drop2 -> drop2
I0605 18:58:13.557832 12321 net.cpp:116] Setting up drop2
I0605 18:58:13.557837 12321 net.cpp:123] Top shape: 100 32 12 12 (460800)
I0605 18:58:13.557838 12321 net.cpp:154] With 0 trainable parameters
I0605 18:58:13.557842 12321 layer_factory.hpp:74] Creating layer s2-conv1
I0605 18:58:13.557847 12321 net.cpp:87] Creating Layer s2-conv1
I0605 18:58:13.557850 12321 net.cpp:387] s2-conv1 <- drop2
I0605 18:58:13.557855 12321 net.cpp:345] s2-conv1 -> s2-conv1
I0605 18:58:13.557860 12321 net.cpp:116] Setting up s2-conv1
I0605 18:58:13.558639 12321 net.cpp:123] Top shape: 100 32 12 12 (460800)
I0605 18:58:13.558648 12321 net.cpp:154] With 18496 trainable parameters
I0605 18:58:13.558652 12321 layer_factory.hpp:74] Creating layer s2-conv2
I0605 18:58:13.558660 12321 net.cpp:87] Creating Layer s2-conv2
I0605 18:58:13.558662 12321 net.cpp:387] s2-conv2 <- s2-conv1
I0605 18:58:13.558666 12321 net.cpp:345] s2-conv2 -> s2-conv2
I0605 18:58:13.558678 12321 net.cpp:116] Setting up s2-conv2
I0605 18:58:13.559473 12321 net.cpp:123] Top shape: 100 32 12 12 (460800)
I0605 18:58:13.559484 12321 net.cpp:154] With 18496 trainable parameters
I0605 18:58:13.559486 12321 layer_factory.hpp:74] Creating layer s2-conv3
I0605 18:58:13.559492 12321 net.cpp:87] Creating Layer s2-conv3
I0605 18:58:13.559494 12321 net.cpp:387] s2-conv3 <- s2-conv2
I0605 18:58:13.559500 12321 net.cpp:345] s2-conv3 -> s2-conv3
I0605 18:58:13.559505 12321 net.cpp:116] Setting up s2-conv3
I0605 18:58:13.560281 12321 net.cpp:123] Top shape: 100 32 12 12 (460800)
I0605 18:58:13.560291 12321 net.cpp:154] With 18496 trainable parameters
I0605 18:58:13.560293 12321 layer_factory.hpp:74] Creating layer pool2
I0605 18:58:13.560298 12321 net.cpp:87] Creating Layer pool2
I0605 18:58:13.560302 12321 net.cpp:387] pool2 <- s2-conv3
I0605 18:58:13.560307 12321 net.cpp:345] pool2 -> pool2
I0605 18:58:13.560312 12321 net.cpp:116] Setting up pool2
I0605 18:58:13.560350 12321 net.cpp:123] Top shape: 100 32 6 6 (115200)
I0605 18:58:13.560355 12321 net.cpp:154] With 0 trainable parameters
I0605 18:58:13.560358 12321 layer_factory.hpp:74] Creating layer drop3
I0605 18:58:13.560363 12321 net.cpp:87] Creating Layer drop3
I0605 18:58:13.560365 12321 net.cpp:387] drop3 <- pool2
I0605 18:58:13.560369 12321 net.cpp:345] drop3 -> drop3
I0605 18:58:13.560374 12321 net.cpp:116] Setting up drop3
I0605 18:58:13.560379 12321 net.cpp:123] Top shape: 100 32 6 6 (115200)
I0605 18:58:13.560380 12321 net.cpp:154] With 0 trainable parameters
I0605 18:58:13.560384 12321 layer_factory.hpp:74] Creating layer s3-conv1
I0605 18:58:13.560389 12321 net.cpp:87] Creating Layer s3-conv1
I0605 18:58:13.560392 12321 net.cpp:387] s3-conv1 <- drop3
I0605 18:58:13.560396 12321 net.cpp:345] s3-conv1 -> s3-conv1
I0605 18:58:13.560401 12321 net.cpp:116] Setting up s3-conv1
I0605 18:58:13.561180 12321 net.cpp:123] Top shape: 100 32 6 6 (115200)
I0605 18:58:13.561190 12321 net.cpp:154] With 18496 trainable parameters
I0605 18:58:13.561194 12321 layer_factory.hpp:74] Creating layer s3-conv2
I0605 18:58:13.561200 12321 net.cpp:87] Creating Layer s3-conv2
I0605 18:58:13.561203 12321 net.cpp:387] s3-conv2 <- s3-conv1
I0605 18:58:13.561208 12321 net.cpp:345] s3-conv2 -> s3-conv2
I0605 18:58:13.561214 12321 net.cpp:116] Setting up s3-conv2
I0605 18:58:13.561992 12321 net.cpp:123] Top shape: 100 32 6 6 (115200)
I0605 18:58:13.562001 12321 net.cpp:154] With 18496 trainable parameters
I0605 18:58:13.562005 12321 layer_factory.hpp:74] Creating layer s3-conv3
I0605 18:58:13.562011 12321 net.cpp:87] Creating Layer s3-conv3
I0605 18:58:13.562013 12321 net.cpp:387] s3-conv3 <- s3-conv2
I0605 18:58:13.562018 12321 net.cpp:345] s3-conv3 -> s3-conv3
I0605 18:58:13.562024 12321 net.cpp:116] Setting up s3-conv3
I0605 18:58:13.562816 12321 net.cpp:123] Top shape: 100 32 6 6 (115200)
I0605 18:58:13.562827 12321 net.cpp:154] With 18496 trainable parameters
I0605 18:58:13.562831 12321 layer_factory.hpp:74] Creating layer pool3
I0605 18:58:13.562837 12321 net.cpp:87] Creating Layer pool3
I0605 18:58:13.562840 12321 net.cpp:387] pool3 <- s3-conv3
I0605 18:58:13.562845 12321 net.cpp:345] pool3 -> pool3
I0605 18:58:13.562851 12321 net.cpp:116] Setting up pool3
I0605 18:58:13.562978 12321 net.cpp:123] Top shape: 100 32 3 3 (28800)
I0605 18:58:13.562983 12321 net.cpp:154] With 0 trainable parameters
I0605 18:58:13.562986 12321 layer_factory.hpp:74] Creating layer drop4
I0605 18:58:13.562990 12321 net.cpp:87] Creating Layer drop4
I0605 18:58:13.562994 12321 net.cpp:387] drop4 <- pool3
I0605 18:58:13.562997 12321 net.cpp:345] drop4 -> drop4
I0605 18:58:13.563002 12321 net.cpp:116] Setting up drop4
I0605 18:58:13.563007 12321 net.cpp:123] Top shape: 100 32 3 3 (28800)
I0605 18:58:13.563010 12321 net.cpp:154] With 0 trainable parameters
I0605 18:58:13.563012 12321 layer_factory.hpp:74] Creating layer ip2
I0605 18:58:13.563019 12321 net.cpp:87] Creating Layer ip2
I0605 18:58:13.563022 12321 net.cpp:387] ip2 <- drop4
I0605 18:58:13.563027 12321 net.cpp:345] ip2 -> ip2
I0605 18:58:13.563036 12321 net.cpp:116] Setting up ip2
I0605 18:58:13.563107 12321 net.cpp:123] Top shape: 100 10 (1000)
I0605 18:58:13.563112 12321 net.cpp:154] With 2890 trainable parameters
I0605 18:58:13.563115 12321 layer_factory.hpp:74] Creating layer loss
I0605 18:58:13.563123 12321 net.cpp:87] Creating Layer loss
I0605 18:58:13.563127 12321 net.cpp:387] loss <- ip2
I0605 18:58:13.563129 12321 net.cpp:387] loss <- label
I0605 18:58:13.563134 12321 net.cpp:345] loss -> loss
I0605 18:58:13.563139 12321 net.cpp:116] Setting up loss
…
I0605 18:58:13.563884 12321 net.cpp:264] The NetState phase (1) differed from the phase (0) specified by a rule in layer mnist
I0605 18:58:13.563887 12321 net.cpp:297] The NetState did not contain stage 'test-on-train' specified by a rule in layer mnist
I0605 18:58:13.564084 12321 net.cpp:42] Initializing net from parameters: 
name: "MNIST_Highway"
state {
  phase: TEST
  stage: "test-on-test"
}
layer {
  name: "mnist"
  type: "Data"
  top: "data"
  top: "label"
  include {
    phase: TEST
    stage: "test-on-test"
  }
  transform_param {
    scale: 0.00390625
  }
  data_param {
    source: "/home/data/mnist/mnist_test_lmdb"
    batch_size: 100
    backend: LMDB
  }
}
layer {
  name: "drop1"
  type: "Dropout"
  bottom: "data"
  top: "drop1"
  dropout_param {
    dropout_ratio: 0.2
  }
}
layer {
  name: "s1-conv1"
  type: "Convolution"
  bottom: "drop1"
  top: "s1-conv1"
  param {
    lr_mult: 1
    decay_mult: 1
  }
  param {
    lr_mult: 2
    decay_mult: 0
  }
  convolution_param {
    num_output: 32
    pad: 0
    kernel_size: 5
    stride: 1
    weight_filler {
      type: "xavier"
    }
    bias_filler {
      type: "constant"
    }
  }
}
layer {
  name: "relu"
  type: "ReLU"
  bottom: "s1-conv1"
  top: "s1-conv1"
}
layer {
  name: "s1-conv2"
  type: "CuDNNHighway"
  bottom: "s1-conv1"
  top: "s1-conv2"
  param {
    lr_mult: 1
    decay_mult: 1
  }
  param {
    lr_mult: 1
    decay_mult: 1
  }
  param {
    lr_mult: 2
    decay_mult: 0
  }
  param {
    lr_mult: 2
    decay_mult: 0
  }
  highway_conv_param {
    num_output: 32
    pad: 1
    kernel_size: 3
    stride: 1
    weight_filler {
      type: "xavier"
    }
    bias_filler {
      type: "constant"
    }
    transform_bias_filler {
      type: "constant"
      value: -1
    }
  }
}
layer {
  name: "s1-conv3"
  type: "CuDNNHighway"
  bottom: "s1-conv2"
  top: "s1-conv3"
  param {
    lr_mult: 1
    decay_mult: 1
  }
  param {
    lr_mult: 1
    decay_mult: 1
  }
  param {
    lr_mult: 2
    decay_mult: 0
  }
  param {
    lr_mult: 2
    decay_mult: 0
  }
  highway_conv_param {
    num_output: 32
    pad: 1
    kernel_size: 3
    stride: 1
    weight_filler {
      type: "xavier"
    }
    bias_filler {
      type: "constant"
    }
    transform_bias_filler {
      type: "constant"
      value: -1
    }
  }
}
layer {
  name: "pool1"
  type: "Pooling"
  bottom: "s1-conv3"
  top: "pool1"
  pooling_param {
    pool: MAX
    kernel_size: 3
    stride: 2
    pad: 0
  }
}
layer {
  name: "drop2"
  type: "Dropout"
  bottom: "pool1"
  top: "drop2"
  dropout_param {
    dropout_ratio: 0.3
  }
}
layer {
  name: "s2-conv1"
  type: "CuDNNHighway"
  bottom: "drop2"
  top: "s2-conv1"
  param {
    lr_mult: 1
    decay_mult: 1
  }
  param {
    lr_mult: 1
    decay_mult: 1
  }
  param {
    lr_mult: 2
    decay_mult: 0
  }
  param {
    lr_mult: 2
    decay_mult: 0
  }
  highway_conv_param {
    num_output: 32
    pad: 1
    kernel_size: 3
    stride: 1
    weight_filler {
      type: "xavier"
    }
    bias_filler {
      type: "constant"
    }
    transform_bias_filler {
      type: "constant"
      value: -1
    }
  }
}
layer {
  name: "s2-conv2"
  type: "CuDNNHighway"
  bottom: "s2-conv1"
  top: "s2-conv2"
  param {
    lr_mult: 1
    decay_mult: 1
  }
  param {
    lr_mult: 1
    decay_mult: 1
  }
  param {
    lr_mult: 2
    decay_mult: 0
  }
  param {
    lr_mult: 2
    decay_mult: 0
  }
  highway_conv_param {
    num_output: 32
    pad: 1
    kernel_size: 3
    stride: 1
    weight_filler {
      type: "xavier"
    }
    bias_filler {
      type: "constant"
    }
    transform_bias_filler {
      type: "constant"
      value: -1
    }
  }
}
layer {
  name: "s2-conv3"
  type: "CuDNNHighway"
  bottom: "s2-conv2"
  top: "s2-conv3"
  param {
    lr_mult: 1
    decay_mult: 1
  }
  param {
    lr_mult: 1
    decay_mult: 1
  }
  param {
    lr_mult: 2
    decay_mult: 0
  }
  param {
    lr_mult: 2
    decay_mult: 0
  }
  highway_conv_param {
    num_output: 32
    pad: 1
    kernel_size: 3
    stride: 1
    weight_filler {
      type: "xavier"
    }
    bias_filler {
      type: "constant"
    }
    transform_bias_filler {
      type: "constant"
      value: -1
    }
  }
}
layer {
  name: "pool2"
  type: "Pooling"
  bottom: "s2-conv3"
  top: "pool2"
  pooling_param {
    pool: MAX
    kernel_size: 3
    stride: 2
    pad: 0
  }
}
layer {
  name: "drop3"
  type: "Dropout"
  bottom: "pool2"
  top: "drop3"
  dropout_param {
    dropout_ratio: 0.4
  }
}
layer {
  name: "s3-conv1"
  type: "CuDNNHighway"
  bottom: "drop3"
  top: "s3-conv1"
  param {
    lr_mult: 1
    decay_mult: 1
  }
  param {
    lr_mult: 1
    decay_mult: 1
  }
  param {
    lr_mult: 2
    decay_mult: 0
  }
  param {
    lr_mult: 2
    decay_mult: 0
  }
  highway_conv_param {
    num_output: 32
    pad: 1
    kernel_size: 3
    stride: 1
    weight_filler {
      type: "xavier"
    }
    bias_filler {
      type: "constant"
    }
    transform_bias_filler {
      type: "constant"
      value: -1
    }
  }
}
layer {
  name: "s3-conv2"
  type: "CuDNNHighway"
  bottom: "s3-conv1"
  top: "s3-conv2"
  param {
    lr_mult: 1
    decay_mult: 1
  }
  param {
    lr_mult: 1
    decay_mult: 1
  }
  param {
    lr_mult: 2
    decay_mult: 0
  }
  param {
    lr_mult: 2
    decay_mult: 0
  }
  highway_conv_param {
    num_output: 32
    pad: 1
    kernel_size: 3
    stride: 1
    weight_filler {
      type: "xavier"
    }
    bias_filler {
      type: "constant"
    }
    transform_bias_filler {
      type: "constant"
      value: -1
    }
  }
}
layer {
  name: "s3-conv3"
  type: "CuDNNHighway"
  bottom: "s3-conv2"
  top: "s3-conv3"
  param {
    lr_mult: 1
    decay_mult: 1
  }
  param {
    lr_mult: 1
    decay_mult: 1
  }
  param {
    lr_mult: 2
    decay_mult: 0
  }
  param {
    lr_mult: 2
    decay_mult: 0
  }
  highway_conv_param {
    num_output: 32
    pad: 1
    kernel_size: 3
    stride: 1
    weight_filler {
      type: "xavier"
    }
    bias_filler {
      type: "constant"
    }
    transform_bias_filler {
      type: "constant"
      value: -1
    }
  }
}
layer {
  name: "pool3"
  type: "Pooling"
  bottom: "s3-conv3"
  top: "pool3"
  pooling_param {
    pool: MAX
    kernel_size: 2
    stride: 2
  }
}
layer {
  name: "drop4"
  type: "Dropout"
  bottom: "pool3"
  top: "drop4"
  dropout_param {
    dropout_ratio: 0.5
  }
}
layer {
  name: "ip2"
  type: "InnerProduct"
  bottom: "drop4"
  top: "ip2"
  param {
    lr_mult: 1
    decay_mult: 10
  }
  param {
    lr_mult: 2
    decay_mult: 0
  }
  inner_product_param {
    num_output: 10
    weight_filler {
      type: "gaussian"
      std: 0.1
    }
    bias_filler {
      type: "constant"
    }
  }
}
layer {
  name: "accuracy"
  type: "Accuracy"
  bottom: "ip2"
  bottom: "label"
  top: "accuracy"
  include {
    phase: TEST
  }
}
layer {
  name: "loss"
  type: "SoftmaxWithLoss"
  bottom: "ip2"
  bottom: "label"
  top: "loss"
}
I0605 18:58:13.564167 12321 layer_factory.hpp:74] Creating layer mnist
I0605 18:58:13.564173 12321 net.cpp:87] Creating Layer mnist
I0605 18:58:13.564177 12321 net.cpp:345] mnist -> data
I0605 18:58:13.564184 12321 net.cpp:345] mnist -> label
I0605 18:58:13.564189 12321 net.cpp:116] Setting up mnist
I0605 18:58:13.564227 12321 db.cpp:34] Opened lmdb /home/data/mnist/mnist_test_lmdb
I0605 18:58:13.564242 12321 data_layer.cpp:67] output data size: 100,1,28,28
I0605 18:58:13.564333 12321 net.cpp:123] Top shape: 100 1 28 28 (78400)
I0605 18:58:13.564339 12321 net.cpp:123] Top shape: 100 (100)
I0605 18:58:13.564342 12321 net.cpp:154] With 0 trainable parameters
I0605 18:58:13.564345 12321 layer_factory.hpp:74] Creating layer label_mnist_1_split
I0605 18:58:13.564349 12321 net.cpp:87] Creating Layer label_mnist_1_split
I0605 18:58:13.564352 12321 net.cpp:387] label_mnist_1_split <- label
I0605 18:58:13.564358 12321 net.cpp:345] label_mnist_1_split -> label_mnist_1_split_0
I0605 18:58:13.564363 12321 net.cpp:345] label_mnist_1_split -> label_mnist_1_split_1
I0605 18:58:13.564368 12321 net.cpp:116] Setting up label_mnist_1_split
I0605 18:58:13.564373 12321 net.cpp:123] Top shape: 100 (100)
I0605 18:58:13.564376 12321 net.cpp:123] Top shape: 100 (100)
I0605 18:58:13.564378 12321 net.cpp:154] With 0 trainable parameters
I0605 18:58:13.564381 12321 layer_factory.hpp:74] Creating layer drop1
I0605 18:58:13.564385 12321 net.cpp:87] Creating Layer drop1
I0605 18:58:13.564388 12321 net.cpp:387] drop1 <- data
I0605 18:58:13.564391 12321 net.cpp:345] drop1 -> drop1
I0605 18:58:13.564396 12321 net.cpp:116] Setting up drop1
I0605 18:58:13.564401 12321 net.cpp:123] Top shape: 100 1 28 28 (78400)
I0605 18:58:13.564404 12321 net.cpp:154] With 0 trainable parameters
I0605 18:58:13.564407 12321 layer_factory.hpp:74] Creating layer s1-conv1
I0605 18:58:13.564411 12321 net.cpp:87] Creating Layer s1-conv1
I0605 18:58:13.564414 12321 net.cpp:387] s1-conv1 <- drop1
I0605 18:58:13.564419 12321 net.cpp:345] s1-conv1 -> s1-conv1
I0605 18:58:13.564424 12321 net.cpp:116] Setting up s1-conv1
I0605 18:58:13.564679 12321 net.cpp:123] Top shape: 100 32 24 24 (1843200)
I0605 18:58:13.564688 12321 net.cpp:154] With 832 trainable parameters
I0605 18:58:13.564692 12321 layer_factory.hpp:74] Creating layer relu
I0605 18:58:13.564697 12321 net.cpp:87] Creating Layer relu
I0605 18:58:13.564699 12321 net.cpp:387] relu <- s1-conv1
I0605 18:58:13.564707 12321 net.cpp:334] relu -> s1-conv1 (in-place)
I0605 18:58:13.564715 12321 net.cpp:116] Setting up relu
I0605 18:58:13.564756 12321 net.cpp:123] Top shape: 100 32 24 24 (1843200)
I0605 18:58:13.564760 12321 net.cpp:154] With 0 trainable parameters
I0605 18:58:13.564764 12321 layer_factory.hpp:74] Creating layer s1-conv2
I0605 18:58:13.564769 12321 net.cpp:87] Creating Layer s1-conv2
I0605 18:58:13.564770 12321 net.cpp:387] s1-conv2 <- s1-conv1
I0605 18:58:13.564776 12321 net.cpp:345] s1-conv2 -> s1-conv2
I0605 18:58:13.564781 12321 net.cpp:116] Setting up s1-conv2
I0605 18:58:13.565572 12321 net.cpp:123] Top shape: 100 32 24 24 (1843200)
I0605 18:58:13.565583 12321 net.cpp:154] With 18496 trainable parameters
I0605 18:58:13.565587 12321 layer_factory.hpp:74] Creating layer s1-conv3
I0605 18:58:13.565594 12321 net.cpp:87] Creating Layer s1-conv3
I0605 18:58:13.565598 12321 net.cpp:387] s1-conv3 <- s1-conv2
I0605 18:58:13.565603 12321 net.cpp:345] s1-conv3 -> s1-conv3
I0605 18:58:13.565608 12321 net.cpp:116] Setting up s1-conv3
I0605 18:58:13.566400 12321 net.cpp:123] Top shape: 100 32 24 24 (1843200)
I0605 18:58:13.566412 12321 net.cpp:154] With 18496 trainable parameters
I0605 18:58:13.566416 12321 layer_factory.hpp:74] Creating layer pool1
I0605 18:58:13.566421 12321 net.cpp:87] Creating Layer pool1
I0605 18:58:13.566423 12321 net.cpp:387] pool1 <- s1-conv3
I0605 18:58:13.566427 12321 net.cpp:345] pool1 -> pool1
I0605 18:58:13.566433 12321 net.cpp:116] Setting up pool1
I0605 18:58:13.566474 12321 net.cpp:123] Top shape: 100 32 12 12 (460800)
I0605 18:58:13.566479 12321 net.cpp:154] With 0 trainable parameters
I0605 18:58:13.566481 12321 layer_factory.hpp:74] Creating layer drop2
I0605 18:58:13.566486 12321 net.cpp:87] Creating Layer drop2
I0605 18:58:13.566489 12321 net.cpp:387] drop2 <- pool1
I0605 18:58:13.566493 12321 net.cpp:345] drop2 -> drop2
I0605 18:58:13.566498 12321 net.cpp:116] Setting up drop2
I0605 18:58:13.566504 12321 net.cpp:123] Top shape: 100 32 12 12 (460800)
I0605 18:58:13.566506 12321 net.cpp:154] With 0 trainable parameters
I0605 18:58:13.566509 12321 layer_factory.hpp:74] Creating layer s2-conv1
I0605 18:58:13.566514 12321 net.cpp:87] Creating Layer s2-conv1
I0605 18:58:13.566515 12321 net.cpp:387] s2-conv1 <- drop2
I0605 18:58:13.566520 12321 net.cpp:345] s2-conv1 -> s2-conv1
I0605 18:58:13.566525 12321 net.cpp:116] Setting up s2-conv1
I0605 18:58:13.567314 12321 net.cpp:123] Top shape: 100 32 12 12 (460800)
I0605 18:58:13.567324 12321 net.cpp:154] With 18496 trainable parameters
I0605 18:58:13.567327 12321 layer_factory.hpp:74] Creating layer s2-conv2
I0605 18:58:13.567332 12321 net.cpp:87] Creating Layer s2-conv2
I0605 18:58:13.567335 12321 net.cpp:387] s2-conv2 <- s2-conv1
I0605 18:58:13.567340 12321 net.cpp:345] s2-conv2 -> s2-conv2
I0605 18:58:13.567347 12321 net.cpp:116] Setting up s2-conv2
I0605 18:58:13.568127 12321 net.cpp:123] Top shape: 100 32 12 12 (460800)
I0605 18:58:13.568140 12321 net.cpp:154] With 18496 trainable parameters
I0605 18:58:13.568142 12321 layer_factory.hpp:74] Creating layer s2-conv3
I0605 18:58:13.568147 12321 net.cpp:87] Creating Layer s2-conv3
I0605 18:58:13.568150 12321 net.cpp:387] s2-conv3 <- s2-conv2
I0605 18:58:13.568156 12321 net.cpp:345] s2-conv3 -> s2-conv3
I0605 18:58:13.568161 12321 net.cpp:116] Setting up s2-conv3
I0605 18:58:13.568960 12321 net.cpp:123] Top shape: 100 32 12 12 (460800)
I0605 18:58:13.568970 12321 net.cpp:154] With 18496 trainable parameters
I0605 18:58:13.568974 12321 layer_factory.hpp:74] Creating layer pool2
I0605 18:58:13.568979 12321 net.cpp:87] Creating Layer pool2
I0605 18:58:13.568981 12321 net.cpp:387] pool2 <- s2-conv3
I0605 18:58:13.568985 12321 net.cpp:345] pool2 -> pool2
I0605 18:58:13.568990 12321 net.cpp:116] Setting up pool2
I0605 18:58:13.569124 12321 net.cpp:123] Top shape: 100 32 6 6 (115200)
I0605 18:58:13.569130 12321 net.cpp:154] With 0 trainable parameters
I0605 18:58:13.569133 12321 layer_factory.hpp:74] Creating layer drop3
I0605 18:58:13.569138 12321 net.cpp:87] Creating Layer drop3
I0605 18:58:13.569140 12321 net.cpp:387] drop3 <- pool2
I0605 18:58:13.569149 12321 net.cpp:345] drop3 -> drop3
I0605 18:58:13.569156 12321 net.cpp:116] Setting up drop3
I0605 18:58:13.569161 12321 net.cpp:123] Top shape: 100 32 6 6 (115200)
I0605 18:58:13.569164 12321 net.cpp:154] With 0 trainable parameters
I0605 18:58:13.569167 12321 layer_factory.hpp:74] Creating layer s3-conv1
I0605 18:58:13.569172 12321 net.cpp:87] Creating Layer s3-conv1
I0605 18:58:13.569175 12321 net.cpp:387] s3-conv1 <- drop3
I0605 18:58:13.569180 12321 net.cpp:345] s3-conv1 -> s3-conv1
I0605 18:58:13.569185 12321 net.cpp:116] Setting up s3-conv1
I0605 18:58:13.569972 12321 net.cpp:123] Top shape: 100 32 6 6 (115200)
I0605 18:58:13.569980 12321 net.cpp:154] With 18496 trainable parameters
I0605 18:58:13.569983 12321 layer_factory.hpp:74] Creating layer s3-conv2
I0605 18:58:13.569988 12321 net.cpp:87] Creating Layer s3-conv2
I0605 18:58:13.569991 12321 net.cpp:387] s3-conv2 <- s3-conv1
I0605 18:58:13.569996 12321 net.cpp:345] s3-conv2 -> s3-conv2
I0605 18:58:13.570003 12321 net.cpp:116] Setting up s3-conv2
I0605 18:58:13.570809 12321 net.cpp:123] Top shape: 100 32 6 6 (115200)
I0605 18:58:13.570819 12321 net.cpp:154] With 18496 trainable parameters
I0605 18:58:13.570822 12321 layer_factory.hpp:74] Creating layer s3-conv3
I0605 18:58:13.570829 12321 net.cpp:87] Creating Layer s3-conv3
I0605 18:58:13.570832 12321 net.cpp:387] s3-conv3 <- s3-conv2
I0605 18:58:13.570838 12321 net.cpp:345] s3-conv3 -> s3-conv3
I0605 18:58:13.570844 12321 net.cpp:116] Setting up s3-conv3
I0605 18:58:13.571637 12321 net.cpp:123] Top shape: 100 32 6 6 (115200)
I0605 18:58:13.571650 12321 net.cpp:154] With 18496 trainable parameters
I0605 18:58:13.571652 12321 layer_factory.hpp:74] Creating layer pool3
I0605 18:58:13.571657 12321 net.cpp:87] Creating Layer pool3
I0605 18:58:13.571660 12321 net.cpp:387] pool3 <- s3-conv3
I0605 18:58:13.571665 12321 net.cpp:345] pool3 -> pool3
I0605 18:58:13.571669 12321 net.cpp:116] Setting up pool3
I0605 18:58:13.571709 12321 net.cpp:123] Top shape: 100 32 3 3 (28800)
I0605 18:58:13.571713 12321 net.cpp:154] With 0 trainable parameters
I0605 18:58:13.571717 12321 layer_factory.hpp:74] Creating layer drop4
I0605 18:58:13.571720 12321 net.cpp:87] Creating Layer drop4
I0605 18:58:13.571723 12321 net.cpp:387] drop4 <- pool3
I0605 18:58:13.571727 12321 net.cpp:345] drop4 -> drop4
I0605 18:58:13.571732 12321 net.cpp:116] Setting up drop4
I0605 18:58:13.571737 12321 net.cpp:123] Top shape: 100 32 3 3 (28800)
I0605 18:58:13.571739 12321 net.cpp:154] With 0 trainable parameters
I0605 18:58:13.571741 12321 layer_factory.hpp:74] Creating layer ip2
I0605 18:58:13.571748 12321 net.cpp:87] Creating Layer ip2
I0605 18:58:13.571749 12321 net.cpp:387] ip2 <- drop4
I0605 18:58:13.571753 12321 net.cpp:345] ip2 -> ip2
I0605 18:58:13.571759 12321 net.cpp:116] Setting up ip2
I0605 18:58:13.571825 12321 net.cpp:123] Top shape: 100 10 (1000)
I0605 18:58:13.571830 12321 net.cpp:154] With 2890 trainable parameters
I0605 18:58:13.571832 12321 layer_factory.hpp:74] Creating layer ip2_ip2_0_split
I0605 18:58:13.571836 12321 net.cpp:87] Creating Layer ip2_ip2_0_split
I0605 18:58:13.571840 12321 net.cpp:387] ip2_ip2_0_split <- ip2
I0605 18:58:13.571842 12321 net.cpp:345] ip2_ip2_0_split -> ip2_ip2_0_split_0
I0605 18:58:13.571847 12321 net.cpp:345] ip2_ip2_0_split -> ip2_ip2_0_split_1
I0605 18:58:13.571851 12321 net.cpp:116] Setting up ip2_ip2_0_split
I0605 18:58:13.571856 12321 net.cpp:123] Top shape: 100 10 (1000)
I0605 18:58:13.571858 12321 net.cpp:123] Top shape: 100 10 (1000)
I0605 18:58:13.571861 12321 net.cpp:154] With 0 trainable parameters
I0605 18:58:13.571863 12321 layer_factory.hpp:74] Creating layer accuracy
I0605 18:58:13.571868 12321 net.cpp:87] Creating Layer accuracy
I0605 18:58:13.571871 12321 net.cpp:387] accuracy <- ip2_ip2_0_split_0
I0605 18:58:13.571874 12321 net.cpp:387] accuracy <- label_mnist_1_split_0
I0605 18:58:13.571878 12321 net.cpp:345] accuracy -> accuracy
…
