…
I0605 08:01:06.626124 15126 net.cpp:264] The NetState phase (0) differed from the phase (1) specified by a rule in layer accuracy
I0605 08:01:06.627097 15126 net.cpp:42] Initializing net from parameters: 
name: "CIFAR100_19layers"
state {
  phase: TRAIN
}
layer {
  name: "cifar"
  type: "Data"
  top: "data"
  top: "label"
  include {
    phase: TRAIN
  }
  transform_param {
    mirror: true
    crop_size: 32
    mean_file: "/home/data/cifar100-gcn-leveldb-splits/paddedmean.binaryproto"
  }
  data_param {
    source: "/home/data/cifar100-gcn-leveldb-splits/cifar100_full_train_leveldb_padded"
    batch_size: 100
    backend: LEVELDB
  }
}
layer {
  name: "drop1"
  type: "Dropout"
  bottom: "data"
  top: "drop1"
  dropout_param {
    dropout_ratio: 0.2
  }
}
layer {
  name: "conv1"
  type: "Convolution"
  bottom: "drop1"
  top: "conv1"
  param {
    lr_mult: 1
    decay_mult: 1
  }
  param {
    lr_mult: 2
    decay_mult: 0
  }
  convolution_param {
    num_output: 32
    pad: 1
    kernel_size: 3
    stride: 1
    weight_filler {
      type: "gaussian"
      value: 0.05
    }
    bias_filler {
      type: "constant"
    }
  }
}
layer {
  name: "relu1"
  type: "ReLU"
  bottom: "conv1"
  top: "conv1"
}
layer {
  name: "conv2"
  type: "CuDNNHighway"
  bottom: "conv1"
  top: "conv2"
  param {
    lr_mult: 1
    decay_mult: 1
  }
  param {
    lr_mult: 1
    decay_mult: 1
  }
  param {
    lr_mult: 2
    decay_mult: 0
  }
  param {
    lr_mult: 2
    decay_mult: 0
  }
  highway_conv_param {
    num_output: 32
    pad: 1
    kernel_size: 3
    stride: 1
    weight_filler {
      type: "xavier"
    }
    bias_filler {
      type: "constant"
    }
    transform_bias_filler {
      type: "constant"
      value: -2
    }
  }
}
layer {
  name: "conv3"
  type: "CuDNNHighway"
  bottom: "conv2"
  top: "conv3"
  param {
    lr_mult: 1
    decay_mult: 1
  }
  param {
    lr_mult: 1
    decay_mult: 1
  }
  param {
    lr_mult: 2
    decay_mult: 0
  }
  param {
    lr_mult: 2
    decay_mult: 0
  }
  highway_conv_param {
    num_output: 32
    pad: 1
    kernel_size: 3
    stride: 1
    weight_filler {
      type: "xavier"
    }
    bias_filler {
      type: "constant"
    }
    transform_bias_filler {
      type: "constant"
      value: -2
    }
  }
}
layer {
  name: "conv4"
  type: "CuDNNHighway"
  bottom: "conv3"
  top: "conv4"
  param {
    lr_mult: 1
    decay_mult: 1
  }
  param {
    lr_mult: 1
    decay_mult: 1
  }
  param {
    lr_mult: 2
    decay_mult: 0
  }
  param {
    lr_mult: 2
    decay_mult: 0
  }
  highway_conv_param {
    num_output: 32
    pad: 1
    kernel_size: 3
    stride: 1
    weight_filler {
      type: "xavier"
    }
    bias_filler {
      type: "constant"
    }
    transform_bias_filler {
      type: "constant"
      value: -2
    }
  }
}
layer {
  name: "conv5"
  type: "CuDNNHighway"
  bottom: "conv4"
  top: "conv5"
  param {
    lr_mult: 1
    decay_mult: 1
  }
  param {
    lr_mult: 1
    decay_mult: 1
  }
  param {
    lr_mult: 2
    decay_mult: 0
  }
  param {
    lr_mult: 2
    decay_mult: 0
  }
  highway_conv_param {
    num_output: 32
    pad: 1
    kernel_size: 3
    stride: 1
    weight_filler {
      type: "xavier"
    }
    bias_filler {
      type: "constant"
    }
    transform_bias_filler {
      type: "constant"
      value: -2
    }
  }
}
layer {
  name: "pool1"
  type: "Pooling"
  bottom: "conv5"
  top: "pool1"
  pooling_param {
    pool: MAX
    kernel_size: 2
    stride: 2
  }
}
layer {
  name: "drop2"
  type: "Dropout"
  bottom: "pool1"
  top: "drop2"
  dropout_param {
    dropout_ratio: 0.2
  }
}
layer {
  name: "conv6"
  type: "Convolution"
  bottom: "drop2"
  top: "conv6"
  param {
    lr_mult: 1
    decay_mult: 1
  }
  param {
    lr_mult: 2
    decay_mult: 0
  }
  convolution_param {
    num_output: 80
    pad: 1
    kernel_size: 3
    stride: 1
    weight_filler {
      type: "xavier"
    }
    bias_filler {
      type: "constant"
    }
  }
}
layer {
  name: "relu6"
  type: "ReLU"
  bottom: "conv6"
  top: "conv6"
}
layer {
  name: "conv7"
  type: "CuDNNHighway"
  bottom: "conv6"
  top: "conv7"
  param {
    lr_mult: 1
    decay_mult: 1
  }
  param {
    lr_mult: 1
    decay_mult: 1
  }
  param {
    lr_mult: 2
    decay_mult: 0
  }
  param {
    lr_mult: 2
    decay_mult: 0
  }
  highway_conv_param {
    num_output: 80
    pad: 1
    kernel_size: 3
    stride: 1
    weight_filler {
      type: "xavier"
    }
    bias_filler {
      type: "constant"
    }
    transform_bias_filler {
      type: "constant"
      value: -2
    }
  }
}
layer {
  name: "conv8"
  type: "CuDNNHighway"
  bottom: "conv7"
  top: "conv8"
  param {
    lr_mult: 1
    decay_mult: 1
  }
  param {
    lr_mult: 1
    decay_mult: 1
  }
  param {
    lr_mult: 2
    decay_mult: 0
  }
  param {
    lr_mult: 2
    decay_mult: 0
  }
  highway_conv_param {
    num_output: 80
    pad: 1
    kernel_size: 3
    stride: 1
    weight_filler {
      type: "xavier"
    }
    bias_filler {
      type: "constant"
    }
    transform_bias_filler {
      type: "constant"
      value: -2
    }
  }
}
layer {
  name: "conv9"
  type: "CuDNNHighway"
  bottom: "conv8"
  top: "conv9"
  param {
    lr_mult: 1
    decay_mult: 1
  }
  param {
    lr_mult: 1
    decay_mult: 1
  }
  param {
    lr_mult: 2
    decay_mult: 0
  }
  param {
    lr_mult: 2
    decay_mult: 0
  }
  highway_conv_param {
    num_output: 80
    pad: 1
    kernel_size: 3
    stride: 1
    weight_filler {
      type: "xavier"
    }
    bias_filler {
      type: "constant"
    }
    transform_bias_filler {
      type: "constant"
      value: -2
    }
  }
}
layer {
  name: "conv10"
  type: "CuDNNHighway"
  bottom: "conv9"
  top: "conv10"
  param {
    lr_mult: 1
    decay_mult: 1
  }
  param {
    lr_mult: 1
    decay_mult: 1
  }
  param {
    lr_mult: 2
    decay_mult: 0
  }
  param {
    lr_mult: 2
    decay_mult: 0
  }
  highway_conv_param {
    num_output: 80
    pad: 1
    kernel_size: 3
    stride: 1
    weight_filler {
      type: "xavier"
    }
    bias_filler {
      type: "constant"
    }
    transform_bias_filler {
      type: "constant"
      value: -2
    }
  }
}
layer {
  name: "conv11"
  type: "CuDNNHighway"
  bottom: "conv10"
  top: "conv11"
  param {
    lr_mult: 1
    decay_mult: 1
  }
  param {
    lr_mult: 1
    decay_mult: 1
  }
  param {
    lr_mult: 2
    decay_mult: 0
  }
  param {
    lr_mult: 2
    decay_mult: 0
  }
  highway_conv_param {
    num_output: 80
    pad: 1
    kernel_size: 3
    stride: 1
    weight_filler {
      type: "xavier"
    }
    bias_filler {
      type: "constant"
    }
    transform_bias_filler {
      type: "constant"
      value: -2
    }
  }
}
layer {
  name: "pool2"
  type: "Pooling"
  bottom: "conv11"
  top: "pool2"
  pooling_param {
    pool: MAX
    kernel_size: 2
    stride: 2
  }
}
layer {
  name: "drop3"
  type: "Dropout"
  bottom: "pool2"
  top: "drop3"
  dropout_param {
    dropout_ratio: 0.2
  }
}
layer {
  name: "conv12"
  type: "Convolution"
  bottom: "drop3"
  top: "conv12"
  param {
    lr_mult: 1
    decay_mult: 1
  }
  param {
    lr_mult: 2
    decay_mult: 0
  }
  convolution_param {
    num_output: 128
    pad: 1
    kernel_size: 3
    stride: 1
    weight_filler {
      type: "xavier"
    }
    bias_filler {
      type: "constant"
    }
  }
}
layer {
  name: "relu12"
  type: "ReLU"
  bottom: "conv12"
  top: "conv12"
}
layer {
  name: "conv13"
  type: "CuDNNHighway"
  bottom: "conv12"
  top: "conv13"
  param {
    lr_mult: 1
    decay_mult: 1
  }
  param {
    lr_mult: 1
    decay_mult: 1
  }
  param {
    lr_mult: 2
    decay_mult: 0
  }
  param {
    lr_mult: 2
    decay_mult: 0
  }
  highway_conv_param {
    num_output: 128
    pad: 1
    kernel_size: 3
    stride: 1
    weight_filler {
      type: "xavier"
    }
    bias_filler {
      type: "constant"
    }
    transform_bias_filler {
      type: "constant"
      value: -2
    }
  }
}
layer {
  name: "conv14"
  type: "CuDNNHighway"
  bottom: "conv13"
  top: "conv14"
  param {
    lr_mult: 1
    decay_mult: 1
  }
  param {
    lr_mult: 1
    decay_mult: 1
  }
  param {
    lr_mult: 2
    decay_mult: 0
  }
  param {
    lr_mult: 2
    decay_mult: 0
  }
  highway_conv_param {
    num_output: 128
    pad: 1
    kernel_size: 3
    stride: 1
    weight_filler {
      type: "xavier"
    }
    bias_filler {
      type: "constant"
    }
    transform_bias_filler {
      type: "constant"
      value: -2
    }
  }
}
layer {
  name: "conv15"
  type: "CuDNNHighway"
  bottom: "conv14"
  top: "conv15"
  param {
    lr_mult: 1
    decay_mult: 1
  }
  param {
    lr_mult: 1
    decay_mult: 1
  }
  param {
    lr_mult: 2
    decay_mult: 0
  }
  param {
    lr_mult: 2
    decay_mult: 0
  }
  highway_conv_param {
    num_output: 128
    pad: 1
    kernel_size: 3
    stride: 1
    weight_filler {
      type: "xavier"
    }
    bias_filler {
      type: "constant"
    }
    transform_bias_filler {
      type: "constant"
      value: -2
    }
  }
}
layer {
  name: "conv16"
  type: "CuDNNHighway"
  bottom: "conv15"
  top: "conv16"
  param {
    lr_mult: 1
    decay_mult: 1
  }
  param {
    lr_mult: 1
    decay_mult: 1
  }
  param {
    lr_mult: 2
    decay_mult: 0
  }
  param {
    lr_mult: 2
    decay_mult: 0
  }
  highway_conv_param {
    num_output: 128
    pad: 1
    kernel_size: 3
    stride: 1
    weight_filler {
      type: "xavier"
    }
    bias_filler {
      type: "constant"
    }
    transform_bias_filler {
      type: "constant"
      value: -2
    }
  }
}
layer {
  name: "conv17"
  type: "CuDNNHighway"
  bottom: "conv16"
  top: "conv17"
  param {
    lr_mult: 1
    decay_mult: 1
  }
  param {
    lr_mult: 1
    decay_mult: 1
  }
  param {
    lr_mult: 2
    decay_mult: 0
  }
  param {
    lr_mult: 2
    decay_mult: 0
  }
  highway_conv_param {
    num_output: 128
    pad: 1
    kernel_size: 3
    stride: 1
    weight_filler {
      type: "xavier"
    }
    bias_filler {
      type: "constant"
    }
    transform_bias_filler {
      type: "constant"
      value: -2
    }
  }
}
layer {
  name: "conv18"
  type: "Convolution"
  bottom: "conv17"
  top: "conv18"
  param {
    lr_mult: 1
    decay_mult: 1
  }
  param {
    lr_mult: 2
    decay_mult: 0
  }
  convolution_param {
    num_output: 100
    pad: 0
    kernel_size: 1
    stride: 1
    weight_filler {
      type: "xavier"
    }
    bias_filler {
      type: "constant"
    }
  }
}
layer {
  name: "relu"
  type: "ReLU"
  bottom: "conv18"
  top: "conv18"
}
layer {
  name: "pool3"
  type: "Pooling"
  bottom: "conv18"
  top: "pool3"
  pooling_param {
    pool: AVE
    kernel_size: 8
    stride: 8
  }
}
layer {
  name: "drop4"
  type: "Dropout"
  bottom: "pool3"
  top: "drop4"
  dropout_param {
    dropout_ratio: 0.2
  }
}
layer {
  name: "ip2"
  type: "InnerProduct"
  bottom: "drop4"
  top: "ip2"
  param {
    lr_mult: 1
    decay_mult: 10
  }
  param {
    lr_mult: 2
    decay_mult: 0
  }
  inner_product_param {
    num_output: 100
    weight_filler {
      type: "xavier"
    }
    bias_filler {
      type: "constant"
    }
  }
}
layer {
  name: "loss"
  type: "SoftmaxWithLoss"
  bottom: "ip2"
  bottom: "label"
  top: "loss"
}
I0605 08:01:06.627441 15126 layer_factory.hpp:74] Creating layer cifar
I0605 08:01:06.627509 15126 net.cpp:87] Creating Layer cifar
I0605 08:01:06.627526 15126 net.cpp:345] cifar -> data
I0605 08:01:06.627578 15126 net.cpp:345] cifar -> label
I0605 08:01:06.627599 15126 net.cpp:116] Setting up cifar
I0605 08:01:06.757036 15126 db.cpp:20] Opened leveldb /home/data/cifar100-gcn-leveldb-splits/cifar100_full_train_leveldb_padded
I0605 08:01:06.757583 15126 data_layer.cpp:67] output data size: 100,3,32,32
I0605 08:01:06.757627 15126 data_transformer.cpp:22] Loading mean file from: /home/data/cifar100-gcn-leveldb-splits/paddedmean.binaryproto
I0605 08:01:06.787376 15126 net.cpp:123] Top shape: 100 3 32 32 (307200)
I0605 08:01:06.787416 15126 net.cpp:123] Top shape: 100 (100)
I0605 08:01:06.787431 15126 net.cpp:154] With 0 trainable parameters
I0605 08:01:06.787444 15126 layer_factory.hpp:74] Creating layer drop1
I0605 08:01:06.787472 15126 net.cpp:87] Creating Layer drop1
I0605 08:01:06.787484 15126 net.cpp:387] drop1 <- data
I0605 08:01:06.787506 15126 net.cpp:345] drop1 -> drop1
I0605 08:01:06.787530 15126 net.cpp:116] Setting up drop1
I0605 08:01:06.787562 15126 net.cpp:123] Top shape: 100 3 32 32 (307200)
I0605 08:01:06.787574 15126 net.cpp:154] With 0 trainable parameters
I0605 08:01:06.787582 15126 layer_factory.hpp:74] Creating layer conv1
I0605 08:01:06.787611 15126 net.cpp:87] Creating Layer conv1
I0605 08:01:06.787621 15126 net.cpp:387] conv1 <- drop1
I0605 08:01:06.787636 15126 net.cpp:345] conv1 -> conv1
I0605 08:01:06.787657 15126 net.cpp:116] Setting up conv1
I0605 08:01:07.099442 15126 net.cpp:123] Top shape: 100 32 32 32 (3276800)
I0605 08:01:07.099517 15126 net.cpp:154] With 896 trainable parameters
I0605 08:01:07.099537 15126 layer_factory.hpp:74] Creating layer relu1
I0605 08:01:07.099560 15126 net.cpp:87] Creating Layer relu1
I0605 08:01:07.099572 15126 net.cpp:387] relu1 <- conv1
I0605 08:01:07.099591 15126 net.cpp:334] relu1 -> conv1 (in-place)
I0605 08:01:07.099614 15126 net.cpp:116] Setting up relu1
I0605 08:01:07.099779 15126 net.cpp:123] Top shape: 100 32 32 32 (3276800)
I0605 08:01:07.099797 15126 net.cpp:154] With 0 trainable parameters
I0605 08:01:07.099807 15126 layer_factory.hpp:74] Creating layer conv2
I0605 08:01:07.099848 15126 net.cpp:87] Creating Layer conv2
I0605 08:01:07.099859 15126 net.cpp:387] conv2 <- conv1
I0605 08:01:07.099876 15126 net.cpp:345] conv2 -> conv2
I0605 08:01:07.099902 15126 net.cpp:116] Setting up conv2
I0605 08:01:07.102442 15126 net.cpp:123] Top shape: 100 32 32 32 (3276800)
I0605 08:01:07.102485 15126 net.cpp:154] With 18496 trainable parameters
I0605 08:01:07.102497 15126 layer_factory.hpp:74] Creating layer conv3
I0605 08:01:07.102517 15126 net.cpp:87] Creating Layer conv3
I0605 08:01:07.102529 15126 net.cpp:387] conv3 <- conv2
I0605 08:01:07.102545 15126 net.cpp:345] conv3 -> conv3
I0605 08:01:07.102566 15126 net.cpp:116] Setting up conv3
I0605 08:01:07.105139 15126 net.cpp:123] Top shape: 100 32 32 32 (3276800)
I0605 08:01:07.105180 15126 net.cpp:154] With 18496 trainable parameters
I0605 08:01:07.105190 15126 layer_factory.hpp:74] Creating layer conv4
I0605 08:01:07.105222 15126 net.cpp:87] Creating Layer conv4
I0605 08:01:07.105236 15126 net.cpp:387] conv4 <- conv3
I0605 08:01:07.105255 15126 net.cpp:345] conv4 -> conv4
I0605 08:01:07.105276 15126 net.cpp:116] Setting up conv4
I0605 08:01:07.107777 15126 net.cpp:123] Top shape: 100 32 32 32 (3276800)
I0605 08:01:07.107813 15126 net.cpp:154] With 18496 trainable parameters
I0605 08:01:07.107825 15126 layer_factory.hpp:74] Creating layer conv5
I0605 08:01:07.107846 15126 net.cpp:87] Creating Layer conv5
I0605 08:01:07.107857 15126 net.cpp:387] conv5 <- conv4
I0605 08:01:07.107877 15126 net.cpp:345] conv5 -> conv5
I0605 08:01:07.107897 15126 net.cpp:116] Setting up conv5
I0605 08:01:07.110383 15126 net.cpp:123] Top shape: 100 32 32 32 (3276800)
I0605 08:01:07.110421 15126 net.cpp:154] With 18496 trainable parameters
I0605 08:01:07.110431 15126 layer_factory.hpp:74] Creating layer pool1
I0605 08:01:07.110472 15126 net.cpp:87] Creating Layer pool1
I0605 08:01:07.110486 15126 net.cpp:387] pool1 <- conv5
I0605 08:01:07.110528 15126 net.cpp:345] pool1 -> pool1
I0605 08:01:07.110551 15126 net.cpp:116] Setting up pool1
I0605 08:01:07.110712 15126 net.cpp:123] Top shape: 100 32 16 16 (819200)
I0605 08:01:07.110726 15126 net.cpp:154] With 0 trainable parameters
I0605 08:01:07.110735 15126 layer_factory.hpp:74] Creating layer drop2
I0605 08:01:07.110754 15126 net.cpp:87] Creating Layer drop2
I0605 08:01:07.110764 15126 net.cpp:387] drop2 <- pool1
I0605 08:01:07.110776 15126 net.cpp:345] drop2 -> drop2
I0605 08:01:07.110791 15126 net.cpp:116] Setting up drop2
I0605 08:01:07.110807 15126 net.cpp:123] Top shape: 100 32 16 16 (819200)
I0605 08:01:07.110816 15126 net.cpp:154] With 0 trainable parameters
I0605 08:01:07.110824 15126 layer_factory.hpp:74] Creating layer conv6
I0605 08:01:07.110844 15126 net.cpp:87] Creating Layer conv6
I0605 08:01:07.110854 15126 net.cpp:387] conv6 <- drop2
I0605 08:01:07.110867 15126 net.cpp:345] conv6 -> conv6
I0605 08:01:07.110883 15126 net.cpp:116] Setting up conv6
I0605 08:01:07.113121 15126 net.cpp:123] Top shape: 100 80 16 16 (2048000)
I0605 08:01:07.113153 15126 net.cpp:154] With 23120 trainable parameters
I0605 08:01:07.113163 15126 layer_factory.hpp:74] Creating layer relu6
I0605 08:01:07.113181 15126 net.cpp:87] Creating Layer relu6
I0605 08:01:07.113193 15126 net.cpp:387] relu6 <- conv6
I0605 08:01:07.113205 15126 net.cpp:334] relu6 -> conv6 (in-place)
I0605 08:01:07.113220 15126 net.cpp:116] Setting up relu6
I0605 08:01:07.113349 15126 net.cpp:123] Top shape: 100 80 16 16 (2048000)
I0605 08:01:07.113361 15126 net.cpp:154] With 0 trainable parameters
I0605 08:01:07.113369 15126 layer_factory.hpp:74] Creating layer conv7
I0605 08:01:07.113389 15126 net.cpp:87] Creating Layer conv7
I0605 08:01:07.113399 15126 net.cpp:387] conv7 <- conv6
I0605 08:01:07.113422 15126 net.cpp:345] conv7 -> conv7
I0605 08:01:07.113440 15126 net.cpp:116] Setting up conv7
I0605 08:01:07.122143 15126 net.cpp:123] Top shape: 100 80 16 16 (2048000)
I0605 08:01:07.122180 15126 net.cpp:154] With 115360 trainable parameters
I0605 08:01:07.122190 15126 layer_factory.hpp:74] Creating layer conv8
I0605 08:01:07.122211 15126 net.cpp:87] Creating Layer conv8
I0605 08:01:07.122221 15126 net.cpp:387] conv8 <- conv7
I0605 08:01:07.122243 15126 net.cpp:345] conv8 -> conv8
I0605 08:01:07.122263 15126 net.cpp:116] Setting up conv8
I0605 08:01:07.130609 15126 net.cpp:123] Top shape: 100 80 16 16 (2048000)
I0605 08:01:07.130642 15126 net.cpp:154] With 115360 trainable parameters
I0605 08:01:07.130652 15126 layer_factory.hpp:74] Creating layer conv9
I0605 08:01:07.130671 15126 net.cpp:87] Creating Layer conv9
I0605 08:01:07.130681 15126 net.cpp:387] conv9 <- conv8
I0605 08:01:07.130694 15126 net.cpp:345] conv9 -> conv9
I0605 08:01:07.130710 15126 net.cpp:116] Setting up conv9
I0605 08:01:07.138685 15126 net.cpp:123] Top shape: 100 80 16 16 (2048000)
I0605 08:01:07.138720 15126 net.cpp:154] With 115360 trainable parameters
I0605 08:01:07.138730 15126 layer_factory.hpp:74] Creating layer conv10
I0605 08:01:07.138751 15126 net.cpp:87] Creating Layer conv10
I0605 08:01:07.138761 15126 net.cpp:387] conv10 <- conv9
I0605 08:01:07.138775 15126 net.cpp:345] conv10 -> conv10
I0605 08:01:07.138790 15126 net.cpp:116] Setting up conv10
I0605 08:01:07.146361 15126 net.cpp:123] Top shape: 100 80 16 16 (2048000)
I0605 08:01:07.146404 15126 net.cpp:154] With 115360 trainable parameters
I0605 08:01:07.146414 15126 layer_factory.hpp:74] Creating layer conv11
I0605 08:01:07.146438 15126 net.cpp:87] Creating Layer conv11
I0605 08:01:07.146448 15126 net.cpp:387] conv11 <- conv10
I0605 08:01:07.146462 15126 net.cpp:345] conv11 -> conv11
I0605 08:01:07.146477 15126 net.cpp:116] Setting up conv11
I0605 08:01:07.153872 15126 net.cpp:123] Top shape: 100 80 16 16 (2048000)
I0605 08:01:07.153903 15126 net.cpp:154] With 115360 trainable parameters
I0605 08:01:07.153911 15126 layer_factory.hpp:74] Creating layer pool2
I0605 08:01:07.153924 15126 net.cpp:87] Creating Layer pool2
I0605 08:01:07.153941 15126 net.cpp:387] pool2 <- conv11
I0605 08:01:07.153971 15126 net.cpp:345] pool2 -> pool2
I0605 08:01:07.153988 15126 net.cpp:116] Setting up pool2
I0605 08:01:07.154273 15126 net.cpp:123] Top shape: 100 80 8 8 (512000)
I0605 08:01:07.154290 15126 net.cpp:154] With 0 trainable parameters
I0605 08:01:07.154297 15126 layer_factory.hpp:74] Creating layer drop3
I0605 08:01:07.154312 15126 net.cpp:87] Creating Layer drop3
I0605 08:01:07.154320 15126 net.cpp:387] drop3 <- pool2
I0605 08:01:07.154331 15126 net.cpp:345] drop3 -> drop3
I0605 08:01:07.154343 15126 net.cpp:116] Setting up drop3
I0605 08:01:07.154359 15126 net.cpp:123] Top shape: 100 80 8 8 (512000)
I0605 08:01:07.154366 15126 net.cpp:154] With 0 trainable parameters
I0605 08:01:07.154373 15126 layer_factory.hpp:74] Creating layer conv12
I0605 08:01:07.154386 15126 net.cpp:87] Creating Layer conv12
I0605 08:01:07.154392 15126 net.cpp:387] conv12 <- drop3
I0605 08:01:07.154405 15126 net.cpp:345] conv12 -> conv12
I0605 08:01:07.154418 15126 net.cpp:116] Setting up conv12
I0605 08:01:07.159808 15126 net.cpp:123] Top shape: 100 128 8 8 (819200)
I0605 08:01:07.159833 15126 net.cpp:154] With 92288 trainable parameters
I0605 08:01:07.159842 15126 layer_factory.hpp:74] Creating layer relu12
I0605 08:01:07.159857 15126 net.cpp:87] Creating Layer relu12
I0605 08:01:07.159865 15126 net.cpp:387] relu12 <- conv12
I0605 08:01:07.159875 15126 net.cpp:334] relu12 -> conv12 (in-place)
I0605 08:01:07.159888 15126 net.cpp:116] Setting up relu12
I0605 08:01:07.159997 15126 net.cpp:123] Top shape: 100 128 8 8 (819200)
I0605 08:01:07.160007 15126 net.cpp:154] With 0 trainable parameters
I0605 08:01:07.160014 15126 layer_factory.hpp:74] Creating layer conv13
I0605 08:01:07.160030 15126 net.cpp:87] Creating Layer conv13
I0605 08:01:07.160037 15126 net.cpp:387] conv13 <- conv12
I0605 08:01:07.160051 15126 net.cpp:345] conv13 -> conv13
I0605 08:01:07.160065 15126 net.cpp:116] Setting up conv13
I0605 08:01:07.175958 15126 net.cpp:123] Top shape: 100 128 8 8 (819200)
I0605 08:01:07.175990 15126 net.cpp:154] With 295168 trainable parameters
I0605 08:01:07.175998 15126 layer_factory.hpp:74] Creating layer conv14
I0605 08:01:07.176018 15126 net.cpp:87] Creating Layer conv14
I0605 08:01:07.176028 15126 net.cpp:387] conv14 <- conv13
I0605 08:01:07.176043 15126 net.cpp:345] conv14 -> conv14
I0605 08:01:07.176058 15126 net.cpp:116] Setting up conv14
I0605 08:01:07.190901 15126 net.cpp:123] Top shape: 100 128 8 8 (819200)
I0605 08:01:07.190928 15126 net.cpp:154] With 295168 trainable parameters
I0605 08:01:07.190940 15126 layer_factory.hpp:74] Creating layer conv15
I0605 08:01:07.190958 15126 net.cpp:87] Creating Layer conv15
I0605 08:01:07.190966 15126 net.cpp:387] conv15 <- conv14
I0605 08:01:07.190979 15126 net.cpp:345] conv15 -> conv15
I0605 08:01:07.190992 15126 net.cpp:116] Setting up conv15
I0605 08:01:07.204888 15126 net.cpp:123] Top shape: 100 128 8 8 (819200)
I0605 08:01:07.204915 15126 net.cpp:154] With 295168 trainable parameters
I0605 08:01:07.204921 15126 layer_factory.hpp:74] Creating layer conv16
I0605 08:01:07.204934 15126 net.cpp:87] Creating Layer conv16
I0605 08:01:07.204941 15126 net.cpp:387] conv16 <- conv15
I0605 08:01:07.204954 15126 net.cpp:345] conv16 -> conv16
I0605 08:01:07.204967 15126 net.cpp:116] Setting up conv16
I0605 08:01:07.218232 15126 net.cpp:123] Top shape: 100 128 8 8 (819200)
I0605 08:01:07.218258 15126 net.cpp:154] With 295168 trainable parameters
I0605 08:01:07.218266 15126 layer_factory.hpp:74] Creating layer conv17
I0605 08:01:07.218282 15126 net.cpp:87] Creating Layer conv17
I0605 08:01:07.218291 15126 net.cpp:387] conv17 <- conv16
I0605 08:01:07.218303 15126 net.cpp:345] conv17 -> conv17
I0605 08:01:07.218315 15126 net.cpp:116] Setting up conv17
I0605 08:01:07.231070 15126 net.cpp:123] Top shape: 100 128 8 8 (819200)
I0605 08:01:07.231094 15126 net.cpp:154] With 295168 trainable parameters
I0605 08:01:07.231101 15126 layer_factory.hpp:74] Creating layer conv18
I0605 08:01:07.231114 15126 net.cpp:87] Creating Layer conv18
I0605 08:01:07.231127 15126 net.cpp:387] conv18 <- conv17
I0605 08:01:07.231153 15126 net.cpp:345] conv18 -> conv18
I0605 08:01:07.231163 15126 net.cpp:116] Setting up conv18
I0605 08:01:07.232245 15126 net.cpp:123] Top shape: 100 100 8 8 (640000)
I0605 08:01:07.232264 15126 net.cpp:154] With 12900 trainable parameters
I0605 08:01:07.232270 15126 layer_factory.hpp:74] Creating layer relu
I0605 08:01:07.232278 15126 net.cpp:87] Creating Layer relu
I0605 08:01:07.232283 15126 net.cpp:387] relu <- conv18
I0605 08:01:07.232291 15126 net.cpp:334] relu -> conv18 (in-place)
I0605 08:01:07.232300 15126 net.cpp:116] Setting up relu
I0605 08:01:07.232403 15126 net.cpp:123] Top shape: 100 100 8 8 (640000)
I0605 08:01:07.232413 15126 net.cpp:154] With 0 trainable parameters
I0605 08:01:07.232417 15126 layer_factory.hpp:74] Creating layer pool3
I0605 08:01:07.232426 15126 net.cpp:87] Creating Layer pool3
I0605 08:01:07.232431 15126 net.cpp:387] pool3 <- conv18
I0605 08:01:07.232439 15126 net.cpp:345] pool3 -> pool3
I0605 08:01:07.232447 15126 net.cpp:116] Setting up pool3
I0605 08:01:07.232529 15126 net.cpp:123] Top shape: 100 100 1 1 (10000)
I0605 08:01:07.232537 15126 net.cpp:154] With 0 trainable parameters
I0605 08:01:07.232542 15126 layer_factory.hpp:74] Creating layer drop4
I0605 08:01:07.232549 15126 net.cpp:87] Creating Layer drop4
I0605 08:01:07.232554 15126 net.cpp:387] drop4 <- pool3
I0605 08:01:07.232561 15126 net.cpp:345] drop4 -> drop4
I0605 08:01:07.232569 15126 net.cpp:116] Setting up drop4
I0605 08:01:07.232578 15126 net.cpp:123] Top shape: 100 100 1 1 (10000)
I0605 08:01:07.232583 15126 net.cpp:154] With 0 trainable parameters
I0605 08:01:07.232589 15126 layer_factory.hpp:74] Creating layer ip2
I0605 08:01:07.232604 15126 net.cpp:87] Creating Layer ip2
I0605 08:01:07.232609 15126 net.cpp:387] ip2 <- drop4
I0605 08:01:07.232619 15126 net.cpp:345] ip2 -> ip2
I0605 08:01:07.232630 15126 net.cpp:116] Setting up ip2
I0605 08:01:07.233041 15126 net.cpp:123] Top shape: 100 100 (10000)
I0605 08:01:07.233065 15126 net.cpp:154] With 10100 trainable parameters
I0605 08:01:07.233072 15126 layer_factory.hpp:74] Creating layer loss
I0605 08:01:07.233080 15126 net.cpp:87] Creating Layer loss
I0605 08:01:07.233085 15126 net.cpp:387] loss <- ip2
I0605 08:01:07.233093 15126 net.cpp:387] loss <- label
I0605 08:01:07.233101 15126 net.cpp:345] loss -> loss
I0605 08:01:07.233110 15126 net.cpp:116] Setting up loss
…
I0605 08:01:07.235580 15126 net.cpp:297] The NetState did not contain stage 'test-on-train' specified by a rule in layer cifar
I0605 08:01:07.236189 15126 net.cpp:42] Initializing net from parameters: 
name: "CIFAR100_19layers"
state {
  phase: TEST
  stage: "test-on-test"
}
layer {
  name: "cifar"
  type: "Data"
  top: "data"
  top: "label"
  include {
    phase: TEST
    stage: "test-on-test"
  }
  transform_param {
    mirror: false
    mean_file: "/home/data/cifar100-gcn-leveldb-splits/mean.binaryproto"
  }
  data_param {
    source: "/home/data/cifar100-gcn-leveldb-splits/cifar100_test_leveldb"
    batch_size: 100
    backend: LEVELDB
  }
}
layer {
  name: "drop1"
  type: "Dropout"
  bottom: "data"
  top: "drop1"
  dropout_param {
    dropout_ratio: 0.2
  }
}
layer {
  name: "conv1"
  type: "Convolution"
  bottom: "drop1"
  top: "conv1"
  param {
    lr_mult: 1
    decay_mult: 1
  }
  param {
    lr_mult: 2
    decay_mult: 0
  }
  convolution_param {
    num_output: 32
    pad: 1
    kernel_size: 3
    stride: 1
    weight_filler {
      type: "gaussian"
      value: 0.05
    }
    bias_filler {
      type: "constant"
    }
  }
}
layer {
  name: "relu1"
  type: "ReLU"
  bottom: "conv1"
  top: "conv1"
}
layer {
  name: "conv2"
  type: "CuDNNHighway"
  bottom: "conv1"
  top: "conv2"
  param {
    lr_mult: 1
    decay_mult: 1
  }
  param {
    lr_mult: 1
    decay_mult: 1
  }
  param {
    lr_mult: 2
    decay_mult: 0
  }
  param {
    lr_mult: 2
    decay_mult: 0
  }
  highway_conv_param {
    num_output: 32
    pad: 1
    kernel_size: 3
    stride: 1
    weight_filler {
      type: "xavier"
    }
    bias_filler {
      type: "constant"
    }
    transform_bias_filler {
      type: "constant"
      value: -2
    }
  }
}
layer {
  name: "conv3"
  type: "CuDNNHighway"
  bottom: "conv2"
  top: "conv3"
  param {
    lr_mult: 1
    decay_mult: 1
  }
  param {
    lr_mult: 1
    decay_mult: 1
  }
  param {
    lr_mult: 2
    decay_mult: 0
  }
  param {
    lr_mult: 2
    decay_mult: 0
  }
  highway_conv_param {
    num_output: 32
    pad: 1
    kernel_size: 3
    stride: 1
    weight_filler {
      type: "xavier"
    }
    bias_filler {
      type: "constant"
    }
    transform_bias_filler {
      type: "constant"
      value: -2
    }
  }
}
layer {
  name: "conv4"
  type: "CuDNNHighway"
  bottom: "conv3"
  top: "conv4"
  param {
    lr_mult: 1
    decay_mult: 1
  }
  param {
    lr_mult: 1
    decay_mult: 1
  }
  param {
    lr_mult: 2
    decay_mult: 0
  }
  param {
    lr_mult: 2
    decay_mult: 0
  }
  highway_conv_param {
    num_output: 32
    pad: 1
    kernel_size: 3
    stride: 1
    weight_filler {
      type: "xavier"
    }
    bias_filler {
      type: "constant"
    }
    transform_bias_filler {
      type: "constant"
      value: -2
    }
  }
}
layer {
  name: "conv5"
  type: "CuDNNHighway"
  bottom: "conv4"
  top: "conv5"
  param {
    lr_mult: 1
    decay_mult: 1
  }
  param {
    lr_mult: 1
    decay_mult: 1
  }
  param {
    lr_mult: 2
    decay_mult: 0
  }
  param {
    lr_mult: 2
    decay_mult: 0
  }
  highway_conv_param {
    num_output: 32
    pad: 1
    kernel_size: 3
    stride: 1
    weight_filler {
      type: "xavier"
    }
    bias_filler {
      type: "constant"
    }
    transform_bias_filler {
      type: "constant"
      value: -2
    }
  }
}
layer {
  name: "pool1"
  type: "Pooling"
  bottom: "conv5"
  top: "pool1"
  pooling_param {
    pool: MAX
    kernel_size: 2
    stride: 2
  }
}
layer {
  name: "drop2"
  type: "Dropout"
  bottom: "pool1"
  top: "drop2"
  dropout_param {
    dropout_ratio: 0.2
  }
}
layer {
  name: "conv6"
  type: "Convolution"
  bottom: "drop2"
  top: "conv6"
  param {
    lr_mult: 1
    decay_mult: 1
  }
  param {
    lr_mult: 2
    decay_mult: 0
  }
  convolution_param {
    num_output: 80
    pad: 1
    kernel_size: 3
    stride: 1
    weight_filler {
      type: "xavier"
    }
    bias_filler {
      type: "constant"
    }
  }
}
layer {
  name: "relu6"
  type: "ReLU"
  bottom: "conv6"
  top: "conv6"
}
layer {
  name: "conv7"
  type: "CuDNNHighway"
  bottom: "conv6"
  top: "conv7"
  param {
    lr_mult: 1
    decay_mult: 1
  }
  param {
    lr_mult: 1
    decay_mult: 1
  }
  param {
    lr_mult: 2
    decay_mult: 0
  }
  param {
    lr_mult: 2
    decay_mult: 0
  }
  highway_conv_param {
    num_output: 80
    pad: 1
    kernel_size: 3
    stride: 1
    weight_filler {
      type: "xavier"
    }
    bias_filler {
      type: "constant"
    }
    transform_bias_filler {
      type: "constant"
      value: -2
    }
  }
}
layer {
  name: "conv8"
  type: "CuDNNHighway"
  bottom: "conv7"
  top: "conv8"
  param {
    lr_mult: 1
    decay_mult: 1
  }
  param {
    lr_mult: 1
    decay_mult: 1
  }
  param {
    lr_mult: 2
    decay_mult: 0
  }
  param {
    lr_mult: 2
    decay_mult: 0
  }
  highway_conv_param {
    num_output: 80
    pad: 1
    kernel_size: 3
    stride: 1
    weight_filler {
      type: "xavier"
    }
    bias_filler {
      type: "constant"
    }
    transform_bias_filler {
      type: "constant"
      value: -2
    }
  }
}
layer {
  name: "conv9"
  type: "CuDNNHighway"
  bottom: "conv8"
  top: "conv9"
  param {
    lr_mult: 1
    decay_mult: 1
  }
  param {
    lr_mult: 1
    decay_mult: 1
  }
  param {
    lr_mult: 2
    decay_mult: 0
  }
  param {
    lr_mult: 2
    decay_mult: 0
  }
  highway_conv_param {
    num_output: 80
    pad: 1
    kernel_size: 3
    stride: 1
    weight_filler {
      type: "xavier"
    }
    bias_filler {
      type: "constant"
    }
    transform_bias_filler {
      type: "constant"
      value: -2
    }
  }
}
layer {
  name: "conv10"
  type: "CuDNNHighway"
  bottom: "conv9"
  top: "conv10"
  param {
    lr_mult: 1
    decay_mult: 1
  }
  param {
    lr_mult: 1
    decay_mult: 1
  }
  param {
    lr_mult: 2
    decay_mult: 0
  }
  param {
    lr_mult: 2
    decay_mult: 0
  }
  highway_conv_param {
    num_output: 80
    pad: 1
    kernel_size: 3
    stride: 1
    weight_filler {
      type: "xavier"
    }
    bias_filler {
      type: "constant"
    }
    transform_bias_filler {
      type: "constant"
      value: -2
    }
  }
}
layer {
  name: "conv11"
  type: "CuDNNHighway"
  bottom: "conv10"
  top: "conv11"
  param {
    lr_mult: 1
    decay_mult: 1
  }
  param {
    lr_mult: 1
    decay_mult: 1
  }
  param {
    lr_mult: 2
    decay_mult: 0
  }
  param {
    lr_mult: 2
    decay_mult: 0
  }
  highway_conv_param {
    num_output: 80
    pad: 1
    kernel_size: 3
    stride: 1
    weight_filler {
      type: "xavier"
    }
    bias_filler {
      type: "constant"
    }
    transform_bias_filler {
      type: "constant"
      value: -2
    }
  }
}
layer {
  name: "pool2"
  type: "Pooling"
  bottom: "conv11"
  top: "pool2"
  pooling_param {
    pool: MAX
    kernel_size: 2
    stride: 2
  }
}
layer {
  name: "drop3"
  type: "Dropout"
  bottom: "pool2"
  top: "drop3"
  dropout_param {
    dropout_ratio: 0.2
  }
}
layer {
  name: "conv12"
  type: "Convolution"
  bottom: "drop3"
  top: "conv12"
  param {
    lr_mult: 1
    decay_mult: 1
  }
  param {
    lr_mult: 2
    decay_mult: 0
  }
  convolution_param {
    num_output: 128
    pad: 1
    kernel_size: 3
    stride: 1
    weight_filler {
      type: "xavier"
    }
    bias_filler {
      type: "constant"
    }
  }
}
layer {
  name: "relu12"
  type: "ReLU"
  bottom: "conv12"
  top: "conv12"
}
layer {
  name: "conv13"
  type: "CuDNNHighway"
  bottom: "conv12"
  top: "conv13"
  param {
    lr_mult: 1
    decay_mult: 1
  }
  param {
    lr_mult: 1
    decay_mult: 1
  }
  param {
    lr_mult: 2
    decay_mult: 0
  }
  param {
    lr_mult: 2
    decay_mult: 0
  }
  highway_conv_param {
    num_output: 128
    pad: 1
    kernel_size: 3
    stride: 1
    weight_filler {
      type: "xavier"
    }
    bias_filler {
      type: "constant"
    }
    transform_bias_filler {
      type: "constant"
      value: -2
    }
  }
}
layer {
  name: "conv14"
  type: "CuDNNHighway"
  bottom: "conv13"
  top: "conv14"
  param {
    lr_mult: 1
    decay_mult: 1
  }
  param {
    lr_mult: 1
    decay_mult: 1
  }
  param {
    lr_mult: 2
    decay_mult: 0
  }
  param {
    lr_mult: 2
    decay_mult: 0
  }
  highway_conv_param {
    num_output: 128
    pad: 1
    kernel_size: 3
    stride: 1
    weight_filler {
      type: "xavier"
    }
    bias_filler {
      type: "constant"
    }
    transform_bias_filler {
      type: "constant"
      value: -2
    }
  }
}
layer {
  name: "conv15"
  type: "CuDNNHighway"
  bottom: "conv14"
  top: "conv15"
  param {
    lr_mult: 1
    decay_mult: 1
  }
  param {
    lr_mult: 1
    decay_mult: 1
  }
  param {
    lr_mult: 2
    decay_mult: 0
  }
  param {
    lr_mult: 2
    decay_mult: 0
  }
  highway_conv_param {
    num_output: 128
    pad: 1
    kernel_size: 3
    stride: 1
    weight_filler {
      type: "xavier"
    }
    bias_filler {
      type: "constant"
    }
    transform_bias_filler {
      type: "constant"
      value: -2
    }
  }
}
layer {
  name: "conv16"
  type: "CuDNNHighway"
  bottom: "conv15"
  top: "conv16"
  param {
    lr_mult: 1
    decay_mult: 1
  }
  param {
    lr_mult: 1
    decay_mult: 1
  }
  param {
    lr_mult: 2
    decay_mult: 0
  }
  param {
    lr_mult: 2
    decay_mult: 0
  }
  highway_conv_param {
    num_output: 128
    pad: 1
    kernel_size: 3
    stride: 1
    weight_filler {
      type: "xavier"
    }
    bias_filler {
      type: "constant"
    }
    transform_bias_filler {
      type: "constant"
      value: -2
    }
  }
}
layer {
  name: "conv17"
  type: "CuDNNHighway"
  bottom: "conv16"
  top: "conv17"
  param {
    lr_mult: 1
    decay_mult: 1
  }
  param {
    lr_mult: 1
    decay_mult: 1
  }
  param {
    lr_mult: 2
    decay_mult: 0
  }
  param {
    lr_mult: 2
    decay_mult: 0
  }
  highway_conv_param {
    num_output: 128
    pad: 1
    kernel_size: 3
    stride: 1
    weight_filler {
      type: "xavier"
    }
    bias_filler {
      type: "constant"
    }
    transform_bias_filler {
      type: "constant"
      value: -2
    }
  }
}
layer {
  name: "conv18"
  type: "Convolution"
  bottom: "conv17"
  top: "conv18"
  param {
    lr_mult: 1
    decay_mult: 1
  }
  param {
    lr_mult: 2
    decay_mult: 0
  }
  convolution_param {
    num_output: 100
    pad: 0
    kernel_size: 1
    stride: 1
    weight_filler {
      type: "xavier"
    }
    bias_filler {
      type: "constant"
    }
  }
}
layer {
  name: "relu"
  type: "ReLU"
  bottom: "conv18"
  top: "conv18"
}
layer {
  name: "pool3"
  type: "Pooling"
  bottom: "conv18"
  top: "pool3"
  pooling_param {
    pool: AVE
    kernel_size: 8
    stride: 8
  }
}
layer {
  name: "drop4"
  type: "Dropout"
  bottom: "pool3"
  top: "drop4"
  dropout_param {
    dropout_ratio: 0.2
  }
}
layer {
  name: "ip2"
  type: "InnerProduct"
  bottom: "drop4"
  top: "ip2"
  param {
    lr_mult: 1
    decay_mult: 10
  }
  param {
    lr_mult: 2
    decay_mult: 0
  }
  inner_product_param {
    num_output: 100
    weight_filler {
      type: "xavier"
    }
    bias_filler {
      type: "constant"
    }
  }
}
layer {
  name: "accuracy"
  type: "Accuracy"
  bottom: "ip2"
  bottom: "label"
  top: "accuracy"
  include {
    phase: TEST
  }
}
layer {
  name: "loss"
  type: "SoftmaxWithLoss"
  bottom: "ip2"
  bottom: "label"
  top: "loss"
}
I0605 08:01:07.236397 15126 layer_factory.hpp:74] Creating layer cifar
I0605 08:01:07.236413 15126 net.cpp:87] Creating Layer cifar
I0605 08:01:07.236420 15126 net.cpp:345] cifar -> data
I0605 08:01:07.236433 15126 net.cpp:345] cifar -> label
I0605 08:01:07.236443 15126 net.cpp:116] Setting up cifar
I0605 08:01:07.417726 15126 db.cpp:20] Opened leveldb /home/data/cifar100-gcn-leveldb-splits/cifar100_test_leveldb
I0605 08:01:07.452049 15126 data_layer.cpp:67] output data size: 100,3,32,32
I0605 08:01:07.452077 15126 data_transformer.cpp:22] Loading mean file from: /home/data/cifar100-gcn-leveldb-splits/mean.binaryproto
I0605 08:01:07.453063 15126 net.cpp:123] Top shape: 100 3 32 32 (307200)
I0605 08:01:07.453083 15126 net.cpp:123] Top shape: 100 (100)
I0605 08:01:07.453091 15126 net.cpp:154] With 0 trainable parameters
I0605 08:01:07.453097 15126 layer_factory.hpp:74] Creating layer label_cifar_1_split
I0605 08:01:07.453109 15126 net.cpp:87] Creating Layer label_cifar_1_split
I0605 08:01:07.453114 15126 net.cpp:387] label_cifar_1_split <- label
I0605 08:01:07.453122 15126 net.cpp:345] label_cifar_1_split -> label_cifar_1_split_0
I0605 08:01:07.453135 15126 net.cpp:345] label_cifar_1_split -> label_cifar_1_split_1
I0605 08:01:07.453145 15126 net.cpp:116] Setting up label_cifar_1_split
I0605 08:01:07.453153 15126 net.cpp:123] Top shape: 100 (100)
I0605 08:01:07.453160 15126 net.cpp:123] Top shape: 100 (100)
I0605 08:01:07.453165 15126 net.cpp:154] With 0 trainable parameters
I0605 08:01:07.453169 15126 layer_factory.hpp:74] Creating layer drop1
I0605 08:01:07.453177 15126 net.cpp:87] Creating Layer drop1
I0605 08:01:07.453182 15126 net.cpp:387] drop1 <- data
I0605 08:01:07.453191 15126 net.cpp:345] drop1 -> drop1
I0605 08:01:07.453199 15126 net.cpp:116] Setting up drop1
I0605 08:01:07.453210 15126 net.cpp:123] Top shape: 100 3 32 32 (307200)
I0605 08:01:07.453215 15126 net.cpp:154] With 0 trainable parameters
I0605 08:01:07.453220 15126 layer_factory.hpp:74] Creating layer conv1
I0605 08:01:07.453229 15126 net.cpp:87] Creating Layer conv1
I0605 08:01:07.453234 15126 net.cpp:387] conv1 <- drop1
I0605 08:01:07.453243 15126 net.cpp:345] conv1 -> conv1
I0605 08:01:07.453251 15126 net.cpp:116] Setting up conv1
I0605 08:01:07.453765 15126 net.cpp:123] Top shape: 100 32 32 32 (3276800)
I0605 08:01:07.453793 15126 net.cpp:154] With 896 trainable parameters
I0605 08:01:07.453799 15126 layer_factory.hpp:74] Creating layer relu1
I0605 08:01:07.453809 15126 net.cpp:87] Creating Layer relu1
I0605 08:01:07.453814 15126 net.cpp:387] relu1 <- conv1
I0605 08:01:07.453822 15126 net.cpp:334] relu1 -> conv1 (in-place)
I0605 08:01:07.453831 15126 net.cpp:116] Setting up relu1
I0605 08:01:07.453922 15126 net.cpp:123] Top shape: 100 32 32 32 (3276800)
I0605 08:01:07.453932 15126 net.cpp:154] With 0 trainable parameters
I0605 08:01:07.453935 15126 layer_factory.hpp:74] Creating layer conv2
I0605 08:01:07.453949 15126 net.cpp:87] Creating Layer conv2
I0605 08:01:07.453955 15126 net.cpp:387] conv2 <- conv1
I0605 08:01:07.453966 15126 net.cpp:345] conv2 -> conv2
I0605 08:01:07.453977 15126 net.cpp:116] Setting up conv2
I0605 08:01:07.455461 15126 net.cpp:123] Top shape: 100 32 32 32 (3276800)
I0605 08:01:07.455487 15126 net.cpp:154] With 18496 trainable parameters
I0605 08:01:07.455493 15126 layer_factory.hpp:74] Creating layer conv3
I0605 08:01:07.455536 15126 net.cpp:87] Creating Layer conv3
I0605 08:01:07.455545 15126 net.cpp:387] conv3 <- conv2
I0605 08:01:07.455555 15126 net.cpp:345] conv3 -> conv3
I0605 08:01:07.455566 15126 net.cpp:116] Setting up conv3
I0605 08:01:07.457077 15126 net.cpp:123] Top shape: 100 32 32 32 (3276800)
I0605 08:01:07.457103 15126 net.cpp:154] With 18496 trainable parameters
I0605 08:01:07.457108 15126 layer_factory.hpp:74] Creating layer conv4
I0605 08:01:07.457123 15126 net.cpp:87] Creating Layer conv4
I0605 08:01:07.457129 15126 net.cpp:387] conv4 <- conv3
I0605 08:01:07.457141 15126 net.cpp:345] conv4 -> conv4
I0605 08:01:07.457154 15126 net.cpp:116] Setting up conv4
I0605 08:01:07.458647 15126 net.cpp:123] Top shape: 100 32 32 32 (3276800)
I0605 08:01:07.458668 15126 net.cpp:154] With 18496 trainable parameters
I0605 08:01:07.458674 15126 layer_factory.hpp:74] Creating layer conv5
I0605 08:01:07.458690 15126 net.cpp:87] Creating Layer conv5
I0605 08:01:07.458696 15126 net.cpp:387] conv5 <- conv4
I0605 08:01:07.458709 15126 net.cpp:345] conv5 -> conv5
I0605 08:01:07.458720 15126 net.cpp:116] Setting up conv5
I0605 08:01:07.460204 15126 net.cpp:123] Top shape: 100 32 32 32 (3276800)
I0605 08:01:07.460235 15126 net.cpp:154] With 18496 trainable parameters
I0605 08:01:07.460243 15126 layer_factory.hpp:74] Creating layer pool1
I0605 08:01:07.460253 15126 net.cpp:87] Creating Layer pool1
I0605 08:01:07.460258 15126 net.cpp:387] pool1 <- conv5
I0605 08:01:07.460269 15126 net.cpp:345] pool1 -> pool1
I0605 08:01:07.460279 15126 net.cpp:116] Setting up pool1
I0605 08:01:07.460366 15126 net.cpp:123] Top shape: 100 32 16 16 (819200)
I0605 08:01:07.460374 15126 net.cpp:154] With 0 trainable parameters
I0605 08:01:07.460379 15126 layer_factory.hpp:74] Creating layer drop2
I0605 08:01:07.460389 15126 net.cpp:87] Creating Layer drop2
I0605 08:01:07.460396 15126 net.cpp:387] drop2 <- pool1
I0605 08:01:07.460402 15126 net.cpp:345] drop2 -> drop2
I0605 08:01:07.460410 15126 net.cpp:116] Setting up drop2
I0605 08:01:07.460419 15126 net.cpp:123] Top shape: 100 32 16 16 (819200)
I0605 08:01:07.460424 15126 net.cpp:154] With 0 trainable parameters
I0605 08:01:07.460428 15126 layer_factory.hpp:74] Creating layer conv6
I0605 08:01:07.460440 15126 net.cpp:87] Creating Layer conv6
I0605 08:01:07.460446 15126 net.cpp:387] conv6 <- drop2
I0605 08:01:07.460454 15126 net.cpp:345] conv6 -> conv6
I0605 08:01:07.460469 15126 net.cpp:116] Setting up conv6
I0605 08:01:07.461752 15126 net.cpp:123] Top shape: 100 80 16 16 (2048000)
I0605 08:01:07.461772 15126 net.cpp:154] With 23120 trainable parameters
I0605 08:01:07.461779 15126 layer_factory.hpp:74] Creating layer relu6
I0605 08:01:07.461789 15126 net.cpp:87] Creating Layer relu6
I0605 08:01:07.461796 15126 net.cpp:387] relu6 <- conv6
I0605 08:01:07.461803 15126 net.cpp:334] relu6 -> conv6 (in-place)
I0605 08:01:07.461812 15126 net.cpp:116] Setting up relu6
I0605 08:01:07.461894 15126 net.cpp:123] Top shape: 100 80 16 16 (2048000)
I0605 08:01:07.461902 15126 net.cpp:154] With 0 trainable parameters
I0605 08:01:07.461907 15126 layer_factory.hpp:74] Creating layer conv7
I0605 08:01:07.461917 15126 net.cpp:87] Creating Layer conv7
I0605 08:01:07.461922 15126 net.cpp:387] conv7 <- conv6
I0605 08:01:07.461932 15126 net.cpp:345] conv7 -> conv7
I0605 08:01:07.461943 15126 net.cpp:116] Setting up conv7
I0605 08:01:07.467079 15126 net.cpp:123] Top shape: 100 80 16 16 (2048000)
I0605 08:01:07.467108 15126 net.cpp:154] With 115360 trainable parameters
I0605 08:01:07.467113 15126 layer_factory.hpp:74] Creating layer conv8
I0605 08:01:07.467128 15126 net.cpp:87] Creating Layer conv8
I0605 08:01:07.467133 15126 net.cpp:387] conv8 <- conv7
I0605 08:01:07.467147 15126 net.cpp:345] conv8 -> conv8
I0605 08:01:07.467160 15126 net.cpp:116] Setting up conv8
I0605 08:01:07.472293 15126 net.cpp:123] Top shape: 100 80 16 16 (2048000)
I0605 08:01:07.472319 15126 net.cpp:154] With 115360 trainable parameters
I0605 08:01:07.472326 15126 layer_factory.hpp:74] Creating layer conv9
I0605 08:01:07.472347 15126 net.cpp:87] Creating Layer conv9
I0605 08:01:07.472368 15126 net.cpp:387] conv9 <- conv8
I0605 08:01:07.472378 15126 net.cpp:345] conv9 -> conv9
I0605 08:01:07.472388 15126 net.cpp:116] Setting up conv9
I0605 08:01:07.477530 15126 net.cpp:123] Top shape: 100 80 16 16 (2048000)
I0605 08:01:07.477553 15126 net.cpp:154] With 115360 trainable parameters
I0605 08:01:07.477560 15126 layer_factory.hpp:74] Creating layer conv10
I0605 08:01:07.477576 15126 net.cpp:87] Creating Layer conv10
I0605 08:01:07.477582 15126 net.cpp:387] conv10 <- conv9
I0605 08:01:07.477591 15126 net.cpp:345] conv10 -> conv10
I0605 08:01:07.477609 15126 net.cpp:116] Setting up conv10
I0605 08:01:07.482708 15126 net.cpp:123] Top shape: 100 80 16 16 (2048000)
I0605 08:01:07.482738 15126 net.cpp:154] With 115360 trainable parameters
I0605 08:01:07.482744 15126 layer_factory.hpp:74] Creating layer conv11
I0605 08:01:07.482758 15126 net.cpp:87] Creating Layer conv11
I0605 08:01:07.482765 15126 net.cpp:387] conv11 <- conv10
I0605 08:01:07.482777 15126 net.cpp:345] conv11 -> conv11
I0605 08:01:07.482789 15126 net.cpp:116] Setting up conv11
I0605 08:01:07.487907 15126 net.cpp:123] Top shape: 100 80 16 16 (2048000)
I0605 08:01:07.487931 15126 net.cpp:154] With 115360 trainable parameters
I0605 08:01:07.487937 15126 layer_factory.hpp:74] Creating layer pool2
I0605 08:01:07.487946 15126 net.cpp:87] Creating Layer pool2
I0605 08:01:07.487952 15126 net.cpp:387] pool2 <- conv11
I0605 08:01:07.487967 15126 net.cpp:345] pool2 -> pool2
I0605 08:01:07.487977 15126 net.cpp:116] Setting up pool2
I0605 08:01:07.488204 15126 net.cpp:123] Top shape: 100 80 8 8 (512000)
I0605 08:01:07.488217 15126 net.cpp:154] With 0 trainable parameters
I0605 08:01:07.488222 15126 layer_factory.hpp:74] Creating layer drop3
I0605 08:01:07.488234 15126 net.cpp:87] Creating Layer drop3
I0605 08:01:07.488240 15126 net.cpp:387] drop3 <- pool2
I0605 08:01:07.488248 15126 net.cpp:345] drop3 -> drop3
I0605 08:01:07.488257 15126 net.cpp:116] Setting up drop3
I0605 08:01:07.488268 15126 net.cpp:123] Top shape: 100 80 8 8 (512000)
I0605 08:01:07.488275 15126 net.cpp:154] With 0 trainable parameters
I0605 08:01:07.488278 15126 layer_factory.hpp:74] Creating layer conv12
I0605 08:01:07.488287 15126 net.cpp:87] Creating Layer conv12
I0605 08:01:07.488292 15126 net.cpp:387] conv12 <- drop3
I0605 08:01:07.488303 15126 net.cpp:345] conv12 -> conv12
I0605 08:01:07.488312 15126 net.cpp:116] Setting up conv12
I0605 08:01:07.492185 15126 net.cpp:123] Top shape: 100 128 8 8 (819200)
I0605 08:01:07.492208 15126 net.cpp:154] With 92288 trainable parameters
I0605 08:01:07.492216 15126 layer_factory.hpp:74] Creating layer relu12
I0605 08:01:07.492225 15126 net.cpp:87] Creating Layer relu12
I0605 08:01:07.492230 15126 net.cpp:387] relu12 <- conv12
I0605 08:01:07.492238 15126 net.cpp:334] relu12 -> conv12 (in-place)
I0605 08:01:07.492247 15126 net.cpp:116] Setting up relu12
I0605 08:01:07.492326 15126 net.cpp:123] Top shape: 100 128 8 8 (819200)
I0605 08:01:07.492334 15126 net.cpp:154] With 0 trainable parameters
I0605 08:01:07.492338 15126 layer_factory.hpp:74] Creating layer conv13
I0605 08:01:07.492348 15126 net.cpp:87] Creating Layer conv13
I0605 08:01:07.492354 15126 net.cpp:387] conv13 <- conv12
I0605 08:01:07.492364 15126 net.cpp:345] conv13 -> conv13
I0605 08:01:07.492375 15126 net.cpp:116] Setting up conv13
I0605 08:01:07.504216 15126 net.cpp:123] Top shape: 100 128 8 8 (819200)
I0605 08:01:07.504240 15126 net.cpp:154] With 295168 trainable parameters
I0605 08:01:07.504246 15126 layer_factory.hpp:74] Creating layer conv14
I0605 08:01:07.504263 15126 net.cpp:87] Creating Layer conv14
I0605 08:01:07.504271 15126 net.cpp:387] conv14 <- conv13
I0605 08:01:07.504282 15126 net.cpp:345] conv14 -> conv14
I0605 08:01:07.504293 15126 net.cpp:116] Setting up conv14
I0605 08:01:07.516145 15126 net.cpp:123] Top shape: 100 128 8 8 (819200)
I0605 08:01:07.516168 15126 net.cpp:154] With 295168 trainable parameters
I0605 08:01:07.516175 15126 layer_factory.hpp:74] Creating layer conv15
I0605 08:01:07.516199 15126 net.cpp:87] Creating Layer conv15
I0605 08:01:07.516217 15126 net.cpp:387] conv15 <- conv14
I0605 08:01:07.516227 15126 net.cpp:345] conv15 -> conv15
I0605 08:01:07.516237 15126 net.cpp:116] Setting up conv15
I0605 08:01:07.528033 15126 net.cpp:123] Top shape: 100 128 8 8 (819200)
I0605 08:01:07.528055 15126 net.cpp:154] With 295168 trainable parameters
I0605 08:01:07.528062 15126 layer_factory.hpp:74] Creating layer conv16
I0605 08:01:07.528072 15126 net.cpp:87] Creating Layer conv16
I0605 08:01:07.528079 15126 net.cpp:387] conv16 <- conv15
I0605 08:01:07.528090 15126 net.cpp:345] conv16 -> conv16
I0605 08:01:07.528100 15126 net.cpp:116] Setting up conv16
I0605 08:01:07.539897 15126 net.cpp:123] Top shape: 100 128 8 8 (819200)
I0605 08:01:07.539921 15126 net.cpp:154] With 295168 trainable parameters
I0605 08:01:07.539927 15126 layer_factory.hpp:74] Creating layer conv17
I0605 08:01:07.539944 15126 net.cpp:87] Creating Layer conv17
I0605 08:01:07.539952 15126 net.cpp:387] conv17 <- conv16
I0605 08:01:07.539963 15126 net.cpp:345] conv17 -> conv17
I0605 08:01:07.539974 15126 net.cpp:116] Setting up conv17
I0605 08:01:07.551771 15126 net.cpp:123] Top shape: 100 128 8 8 (819200)
I0605 08:01:07.551795 15126 net.cpp:154] With 295168 trainable parameters
I0605 08:01:07.551800 15126 layer_factory.hpp:74] Creating layer conv18
I0605 08:01:07.551812 15126 net.cpp:87] Creating Layer conv18
I0605 08:01:07.551818 15126 net.cpp:387] conv18 <- conv17
I0605 08:01:07.551827 15126 net.cpp:345] conv18 -> conv18
I0605 08:01:07.551836 15126 net.cpp:116] Setting up conv18
I0605 08:01:07.552723 15126 net.cpp:123] Top shape: 100 100 8 8 (640000)
I0605 08:01:07.552741 15126 net.cpp:154] With 12900 trainable parameters
I0605 08:01:07.552747 15126 layer_factory.hpp:74] Creating layer relu
I0605 08:01:07.552754 15126 net.cpp:87] Creating Layer relu
I0605 08:01:07.552759 15126 net.cpp:387] relu <- conv18
I0605 08:01:07.552767 15126 net.cpp:334] relu -> conv18 (in-place)
I0605 08:01:07.552775 15126 net.cpp:116] Setting up relu
I0605 08:01:07.552894 15126 net.cpp:123] Top shape: 100 100 8 8 (640000)
I0605 08:01:07.552903 15126 net.cpp:154] With 0 trainable parameters
I0605 08:01:07.552908 15126 layer_factory.hpp:74] Creating layer pool3
I0605 08:01:07.552917 15126 net.cpp:87] Creating Layer pool3
I0605 08:01:07.552922 15126 net.cpp:387] pool3 <- conv18
I0605 08:01:07.552928 15126 net.cpp:345] pool3 -> pool3
I0605 08:01:07.552937 15126 net.cpp:116] Setting up pool3
I0605 08:01:07.553145 15126 net.cpp:123] Top shape: 100 100 1 1 (10000)
I0605 08:01:07.553156 15126 net.cpp:154] With 0 trainable parameters
I0605 08:01:07.553163 15126 layer_factory.hpp:74] Creating layer drop4
I0605 08:01:07.553170 15126 net.cpp:87] Creating Layer drop4
I0605 08:01:07.553175 15126 net.cpp:387] drop4 <- pool3
I0605 08:01:07.553184 15126 net.cpp:345] drop4 -> drop4
I0605 08:01:07.553191 15126 net.cpp:116] Setting up drop4
I0605 08:01:07.553200 15126 net.cpp:123] Top shape: 100 100 1 1 (10000)
I0605 08:01:07.553205 15126 net.cpp:154] With 0 trainable parameters
I0605 08:01:07.553210 15126 layer_factory.hpp:74] Creating layer ip2
I0605 08:01:07.553220 15126 net.cpp:87] Creating Layer ip2
I0605 08:01:07.553225 15126 net.cpp:387] ip2 <- drop4
I0605 08:01:07.553232 15126 net.cpp:345] ip2 -> ip2
I0605 08:01:07.553241 15126 net.cpp:116] Setting up ip2
I0605 08:01:07.553629 15126 net.cpp:123] Top shape: 100 100 (10000)
I0605 08:01:07.553649 15126 net.cpp:154] With 10100 trainable parameters
I0605 08:01:07.553655 15126 layer_factory.hpp:74] Creating layer ip2_ip2_0_split
I0605 08:01:07.553668 15126 net.cpp:87] Creating Layer ip2_ip2_0_split
I0605 08:01:07.553673 15126 net.cpp:387] ip2_ip2_0_split <- ip2
I0605 08:01:07.553681 15126 net.cpp:345] ip2_ip2_0_split -> ip2_ip2_0_split_0
I0605 08:01:07.553690 15126 net.cpp:345] ip2_ip2_0_split -> ip2_ip2_0_split_1
I0605 08:01:07.553697 15126 net.cpp:116] Setting up ip2_ip2_0_split
I0605 08:01:07.553705 15126 net.cpp:123] Top shape: 100 100 (10000)
I0605 08:01:07.553711 15126 net.cpp:123] Top shape: 100 100 (10000)
I0605 08:01:07.553721 15126 net.cpp:154] With 0 trainable parameters
I0605 08:01:07.553737 15126 layer_factory.hpp:74] Creating layer accuracy
I0605 08:01:07.553751 15126 net.cpp:87] Creating Layer accuracy
I0605 08:01:07.553757 15126 net.cpp:387] accuracy <- ip2_ip2_0_split_0
I0605 08:01:07.553763 15126 net.cpp:387] accuracy <- label_cifar_1_split_0
I0605 08:01:07.553771 15126 net.cpp:345] accuracy -> accuracy
…
